models/GCN/gcn_model_best.pt (torch, 26958 bytes, 5 tensors)

layers.0.bias f4 [64]
0	0x3d5c7f99	0.053832624
1	0x3d1b0249	0.037843976
2	0x3d5813ba	0.052753188
3	0xbbddd200	-0.0067694187
4	0x3d290865	0.04126777
5	0x3d5ac0db	0.053406578
6	0x3d4f0780	0.050544262
7	0x3d4da03b	0.050201636
8	0xbcfbcfd4	-0.030738749
9	0x3d5122d5	0.05105861
10	0x3d599062	0.05311621
11	0x3d5b5f10	0.053557456
12	0xbd0e6c42	-0.03477121
13	0x3cd03ea7	0.0254205
14	0x3d5f1d53	0.054471325
15	0x3d59f500	0.053212166
16	0x3d5e9367	0.054339793
17	0x3cab4efc	0.020911686
18	0x3d5ce79f	0.05393183
19	0xbcc3ae86	-0.02388693
20	0x3d5a02b4	0.053225234
21	0x3d56a469	0.052402887
22	0xbbef10cd	-0.007295704
23	0xba3fa914	-0.00073112664
24	0x3d5eb36f	0.05437034
25	0x3d5aa2b5	0.053377826
26	0x3d5e0aea	0.054209627
27	0x3d5ca91a	0.053872205
28	0x3d5f2091	0.054474417
29	0x3d62ba60	0.055353522
30	0x3c6eb219	0.014568829
31	0x3b224443	0.0024759925
32	0x3d5cb0db	0.0538796
33	0x3d166926	0.03672137
34	0x3cdc54d3	0.026895916
35	0x3d5bb914	0.0536433
36	0x3d664620	0.05621922
37	0xbc84e500	-0.016222477
38	0xbcdeeb82	-0.027211908
39	0x3ce5a88b	0.02803447
40	0x3cbcb298	0.023034379
41	0x3d25d6ea	0.04048816
42	0x3d2b8e16	0.04188355
43	0xbcb9e1f7	-0.022690756
44	0xbd20665f	-0.03916013
45	0x3d4e1f62	0.050322898
46	0x3cb5b60c	0.022181533
47	0x3d3bb342	0.04582525
48	0x3d22d7e1	0.03975666
49	0x3c59004a	0.013244698
50	0x3d01a292	0.03164918
51	0x3d546cca	0.05186156
52	0xbc18096c	-0.00927959
53	0xbd1f6407	-0.038913753
54	0x3cbe6f2e	0.023246374
55	0x3d2e2ce2	0.042523272
56	0xbc2a06f2	-0.010377632
57	0xb9ef36e4	-0.0004562653
58	0x3d613ea6	0.054991387
59	0x3d5c8cf5	0.053845365
60	0x3c997d93	0.018736636
61	0x3c60bfe4	0.013717625
62	0xbcaba4fd	-0.020952696
63	0x3d60ab68	0.054850966

layers.0.lin.weight f4 [64, 27]
0	0x3e9b08e8	0.30280232
1	0xbe60f0de	-0.21966884
2	0x3e1192bb	0.1421613
3	0xbe3c0e0c	-0.18364733
4	0x3e2c6f93	0.16839437
5	0x3e7eab1e	0.24869964
6	0x3d9e7a1e	0.07738136
7	0xbe0677ec	-0.13131684
8	0xba95ffc0	-0.0011444017
9	0x3d7d3ad4	0.06182368
10	0xbdb31c9f	-0.087456934
11	0x3df86cb4	0.121301085
12	0xbe02ee5b	-0.12786238
13	0xbe2c3048	-0.16815293
14	0xbd52fd9d	-0.051511396
15	0xbd76c782	-0.06024886
16	0xbd23736a	-0.03990499
17	0xbcdc7834	-0.026912786
18	0xbdfb8f24	-0.12283161
19	0xbd16e75e	-0.036841743
20	0x3dd0d09d	0.1019604
21	0xbd8a1a01	-0.06743241
22	0xbd35bc33	-0.044368934
23	0x3e91ef17	0.28502724
24	0xbe1e7a5b	-0.15476362
25	0x3e36a3fb	0.17835991
26	0xbdaaaa4b	-0.08333262
27	0xbe7b38ca	-0.24533382
28	0xbe5aa0a4	-0.21350342
29	0x3b3a941b	0.0028469625
30	0x3e681a3b	0.22666256
31	0xbe6a2397	-0.22865139
32	0x3e894517	0.26810524
33	0x3c9ece1a	0.019385386
34	0x3cc1ee09	0.023673074
35	0x3e841cd3	0.2580324
36	0x3e412924	0.1886335
37	0xbda221f2	-0.07916631
38	0x3e5672e0	0.20942259
39	0x3dc47eef	0.09594523
40	0x3e8372ba	0.25673467
41	0xbe068773	-0.13137607
42	0x3e8dfef5	0.2773358
43	0x3e826f67	0.25475618
44	0x3e433d10	0.19066262
45	0x3ccc9a0a	0.024975795
46	0x3dae71be	0.08517788
47	0xbdcb1c28	-0.0991748
48	0x3e3de5a1	0.18544628
49	0xbd3ca876	-0.046059094
50	0x3e229810	0.1587832
51	0x3df27fab	0.11840757
52	0x3e7e1063	0.24810939
53	0xbdf64d55	-0.12026469
54	0x3e721c54	0.23643619
55	0x3e4f04e2	0.20216706
56	0xbded0741	-0.11573649
57	0xbd09b0ab	-0.03361575
58	0x3d9ac14f	0.07556402
59	0x3e5f212c	0.21789998
60	0xbd907f45	-0.07055525
61	0xbde98543	-0.11402371
62	0xbdfaaf28	-0.1224044
63	0xbc4faf5a	-0.012676084
64	0x3d5a5507	0.053303745
65	0xbbdd5e52	-0.0067556286
66	0x3db08e9c	0.086209506
67	0x3d92a211	0.07159818
68	0x3e669819	0.22518958
69	0x3e8fa1d4	0.28053153
70	0x3d6b58e5	0.057457823
71	0xbe292147	-0.165166
72	0xbcb06289	-0.02153136
73	0x3e749423	0.23884635
74	0xbd71646e	-0.058933668
75	0x3e22ee2c	0.15911168
76	0x3e9b9a0f	0.30390975
77	0x3c30ca39	0.010790401
78	0xbe4d41df	-0.20044659
79	0xbe4b6ed4	-0.19866496
80	0xbd2ebb14	-0.04265888
81	0xbd2073ce	-0.03917294
82	0x3d958e45	0.073025264
83	0x3e08f4ee	0.13374683
84	0xbae80200	-0.0017700791
85	0xbe1538f3	-0.14572506
86	0x3d848004	0.064697295
87	0x3c2e5b02	0.010641815
88	0x3c1bb523	0.009503636
89	0xbdf7a67e	-0.12092303
90	0x3e79a43c	0.24379057
91	0x3e244d86	0.16045198
92	0x3e6e2b80	0.23258781
93	0xba41e96f	-0.000739715
94	0x3caf5b3b	0.021405807
95	0xbdf452fe	-0.11929892
96	0xbe256475	-0.16151603
97	0x3caba23b	0.020951381
98	0x3e7db934	0.2477768
99	0xbe69064a	-0.22756305
100	0xbe0f3edd	-0.13988824
101	0xbdf34f80	-0.11880398
102	0x3e58e359	0.21180476
103	0xbe50c91f	-0.20389222
104	0xbe578a66	-0.21048889
105	0x3e1f1dd2	0.1553872
106	0x3e1a440c	0.1506502
107	0x3e4c4f68	0.19952166
108	0xbe7d4bfa	-0.24736014
109	0xbcacb0b3	-0.02108035
110	0x3e5ab099	0.21356429
111	0xbd151ec6	-0.0364063
112	0x3e254453	0.16139345
113	0xbb8a58c8	-0.0042220093
114	0x3e17ffff	0.14843749
115	0x3d16b20e	0.0367909
116	0xbc9877a4	-0.018611737
117	0xbe3575c4	-0.17720705
118	0xbc65bf18	-0.014022611
119	0xbe2804a7	-0.16408025
120	0x3e4beb94	0.19914085
121	0x3c2cc5f2	0.010545241
122	0xbd396f93	-0.04527242
123	0x3e88eca5	0.26743045
124	0xbd239591	-0.03993756
125	0xbe0438e1	-0.12912323
126	0xbe3c89fb	-0.1841201
127	0xbdb567f1	-0.08857716
128	0x3dfaf46d	0.12253652
129	0xbd3f335a	-0.046679832
130	0xbd235bb2	-0.03988237
131	0xbbe9a86b	-0.0071306727
132	0x3d26743d	0.040638197
133	0x3e46c9f7	0.19412981
134	0x3e89af39	0.26891497
135	0xbe1e6000	-0.15466309
136	0x3d34306b	0.043991487
137	0xbe579b4f	-0.2105534
138	0xbe261b48	-0.16221344
139	0x3e82b535	0.25528875
140	0xbe3c91ff	-0.18415068
141	0xba33a974	-0.00068535586
142	0xbe08be86	-0.13353929
143	0x3e8b5d50	0.2721963
144	0x3d43709b	0.04771481
145	0xbd3fcaf9	-0.04682443
146	0x3e1289fa	0.14310446
147	0xbc96fd91	-0.018431457
148	0xbc80656a	-0.015673358
149	0x3da18d9c	0.07888338
150	0x3e9007e3	0.28131017
151	0x3e05a649	0.13051714
152	0x3e2cbffa	0.16870108
153	0xbd8155b5	-0.063151754
154	0x3d39fde1	0.045408133
155	0xbd9b923b	-0.075962506
156	0x3d9ede4f	0.07757246
157	0xbe050d88	-0.12993443
158	0x3c5080df	0.012726038
159	0xbe2b0e9d	-0.16704793
160	0xbe2956ee	-0.16537067
161	0x3e1fd3d0	0.15608144
162	0x3cfb4804	0.030673988
163	0x3dfa6dd8	0.12227982
164	0x3d47427f	0.0486474
165	0x3db352de	0.0875604
166	0x3e2d6c75	0.16935904
167	0x3da7323f	0.081638806
168	0x3c176283	0.009239796
169	0xbe3f17f1	-0.18661477
170	0xbd08f7cc	-0.033439443
171	0x3e6600ba	0.22461215
172	0xbe348530	-0.17628932
173	0xbc4d4734	-0.012529183
174	0x3d85584c	0.06510982
175	0xbd1288a4	-0.035774842
176	0x3d876c2e	0.066124305
177	0x3e99e1f9	0.30055216
178	0xbd935cdd	-0.07195447
179	0x3e367008	0.17816174
180	0xbe03a256	-0.12854895
181	0x3deb4c6c	0.11489186
182	0xbd06d6e2	-0.032919772
183	0xbe4632aa	-0.19355264
184	0x3d827257	0.06369465
185	0x3e97beb0	0.2963767
186	0xbe2eb1ef	-0.17060064
187	0xbdbab15b	-0.09115859
188	0x3c224e78	0.009906404
189	0xbd0e1d7a	-0.03469608
190	0x3e525f25	0.20544107
191	0x3d74ff7f	0.059813973
192	0x3dad4a55	0.08461443
193	0x3e009bda	0.12559453
194	0x3d48de28	0.04903999
195	0x3e86eac0	0.26350975
196	0x3d7a063d	0.061041106
197	0x3e3ddf1d	0.18542142
198	0x3e3bec2b	0.1835181
199	0xbd8759fe	-0.066089615
200	0xbdaaf27e	-0.08347033
201	0x3e17e3ee	0.14833042
202	0x3e9259b2	0.28584057
203	0x3d4d5002	0.05012513
204	0xbd5c4814	-0.053779677
205	0xba29cf61	-0.000647774
206	0xbd23b1a5	-0.039964337
207	0x3deda444	0.11603597
208	0xbddcbd32	-0.10778274
209	0x3e68ffc6	0.2275382
210	0x3e836bb2	0.25668103
211	0x3e855996	0.2604491
212	0xbdbfe9e2	-0.093707815
213	0xbe0116e2	-0.12606385
214	0xbdb1f511	-0.08689321
215	0x3e21b717	0.157925
216	0x3e0982d9	0.1342882
217	0xbe03f2cd	-0.1288559
218	0x3d4f6d2a	0.050641216
219	0xbce901b1	-0.02844319
220	0x3dbcc890	0.09217942
221	0xbe816518	-0.2527244
222	0xbe699ea1	-0.22814418
223	0xbd37a596	-0.04483565
224	0xbd204e28	-0.039137036
225	0x3e247ad5	0.16062482
226	0xbe00a84d	-0.12564202
227	0x3c67435c	0.014115181
228	0xbd0efb9d	-0.034907926
229	0x3d6968d5	0.05698474
230	0xbe6b3dd4	-0.22972804
231	0xbe8155ff	-0.25260922
232	0xbca06e24	-0.01958377
233	0x3da92a85	0.08260063
234	0x3d8b4601	0.068004616
235	0xbe31158a	-0.17293373
236	0x3e435a90	0.19077516
237	0x3d8f6447	0.07001548
238	0xbe8268dc	-0.25470626
239	0x3da516f5	0.08061019
240	0xbe4bb6b3	-0.19893913
241	0x3c9964b9	0.018724786
242	0xbdd893a6	-0.10575037
243	0x3e049270	0.12946486
244	0x3e85da59	0.2614315
245	0xbe93e9bf	-0.28889272
246	0x3e362a79	0.1778964
247	0x3b5fac6d	0.0034129873
248	0x3e61dc57	0.22056709
249	0xbd497298	-0.04918155
250	0xbe11433c	-0.14185804
251	0xbe0b72e5	-0.13618048
252	0x3e946e5b	0.28990445
253	0x3dcbd336	0.09952395
254	0x3e095ced	0.13414355
255	0x3e81bd6d	0.25339833

layers.1.bias f4 [64]
0	0x3d598d2e	0.053113155
1	0x3d636d95	0.055524427
2	0xbcf7cbbe	-0.030248519
3	0xbcbafc4f	-0.022825388
4	0xbc9eac8e	-0.01936939
5	0x3d58e6b4	0.05295439
6	0xbc8816a5	-0.01661236
7	0xbcb6cd24	-0.022314616
8	0xbca91ed5	-0.020644585
9	0xbcb5a897	-0.022175116
10	0x3d5ff9da	0.054681636
11	0x3d665054	0.05622895
12	0x3d5a523c	0.05330108
13	0xbca49896	-0.02009229
14	0xbcf8fd1b	-0.030394128
15	0xbcf2e127	-0.029648377
16	0x3d5946af	0.053045925
17	0x3d5187a7	0.05115476
18	0x3d4957f2	0.049156137
19	0xbcbe6883	-0.023243194
20	0xbccfdf2b	-0.02537497
21	0xbc91531a	-0.017739821
22	0x3d4ade90	0.04952866
23	0x3d5f1496	0.05446299
24	0x3d48280a	0.04886631
25	0x3d5962c4	0.053072706
26	0x3d43c1bb	0.047792178
27	0xbd148628	-0.036260754
28	0x3d5ce98b	0.05393366
29	0x3d65d2b1	0.056109134
30	0x3d477476	0.04869505
31	0x3d4e8d14	0.05042751
32	0xbcb2d80d	-0.021831537
33	0xbd00b73a	-0.03142474
34	0x3d45d639	0.0483
35	0x3d4bbe56	0.049742065
36	0x3d4ae1cb	0.04953174
37	0xbc8d039b	-0.017213633
38	0xbcb4bb24	-0.022061892
39	0x3d632a25	0.055460114
40	0xbcbac8c7	-0.022800816
41	0xbcb0f097	-0.021599097
42	0xbcc4fe21	-0.02404696
43	0x3d4300c7	0.047608163
44	0x3d5fc503	0.054631244
45	0xbc9a9fba	-0.018874992
46	0xbcc1add3	-0.023642456
47	0xbcaff2e2	-0.02147812
48	0x3d49ce05	0.04926874
49	0xbc3769b3	-0.011194634
50	0xbc922d51	-0.017843874
51	0x3d59b8e1	0.05315483
52	0x3d4942bf	0.04913592
53	0xbc8ddcfe	-0.017317291
54	0xbcc4d26e	-0.024026122
55	0x3d49c893	0.049263548
56	0x3d52ea68	0.05149308
57	0xbc9e69dd	-0.019337589
58	0x3d5d1d9b	0.053983312
59	0x3c201da7	0.009772695
60	0x3d5b93e9	0.053607855
61	0x3d5d7063	0.05406226
62	0x3d4106c1	0.04712558
63	0xbca1246d	-0.01967069

layers.1.lin.weight f4 [64, 64]
0	0x3db614a0	0.08890653
1	0x3e15ee52	0.14641693
2	0x3c05ef80	0.008174777
3	0xbe19f067	-0.15033112
4	0xbdcde041	-0.10052539
5	0x3e7d3c00	0.2472992
6	0x3e67239d	0.22572179
7	0x3dfbde6a	0.122982815
8	0x3e6eff76	0.23339638
9	0xbdd20204	-0.10254291
10	0xbd0ac131	-0.033875648
11	0x3e68f3e6	0.2274929
12	0xbce321c0	-0.027726054
13	0x3e0f9a3b	0.14023678
14	0x3d76a2ed	0.060213972
15	0xbd303f14	-0.043028906
16	0xbda354a7	-0.079751305
17	0xbac48d23	-0.0014995675
18	0x3e044ced	0.1291997
19	0x3d7ce065	0.061737437
20	0x3e3601a3	0.17774062
21	0x3e2faf7c	0.17156786
22	0x3e47a6cf	0.19497226
23	0xbd5f2f7f	-0.054488655
24	0x3dd96699	0.10615272
25	0x3cf6acb8	0.030111656
26	0x3e27eaf1	0.16398217
27	0xbd9af20a	-0.075656965
28	0xbe0a4ef6	-0.13506684
29	0x3e3d3a41	0.18479253
30	0x3db395f0	0.08768833
31	0xbd262ad8	-0.040568203
32	0xbe131914	-0.14365035
33	0x3e2ee167	0.17078172
34	0x3e8532aa	0.26015216
35	0x3e7453a8	0.23860037
36	0xbdee8d5d	-0.11648057
37	0x3e1d5c6a	0.15367284
38	0x3e75acbc	0.23991674
39	0xbde24f56	-0.110502884
40	0x3c951c0c	0.01820185
41	0xbd49268c	-0.049109027
42	0x3b849402	0.004045964
43	0xbce7d27b	-0.028298607
44	0xbe00352f	-0.12520288
45	0x3ddadeaf	0.10687005
46	0x3e748b78	0.23881328
47	0x3d8b60be	0.068055615
48	0xbe08cf65	-0.13360365
49	0x3d8230a0	0.06356931
50	0xbd6253c4	-0.055255666
51	0xbe05a0a3	-0.1304956
52	0x3c868f76	0.01642583
53	0xbd513e2f	-0.051084694
54	0xbd546f0a	-0.051863708
55	0xbdaab697	-0.083356075
56	0xbe1233ff	-0.14277647
57	0xbe0bf484	-0.13667494
58	0x3e34928a	0.17634025
59	0x3e5fb587	0.21846591
60	0xbdf18c9c	-0.11794397
61	0x3e174315	0.14771684
62	0xbd88e78d	-0.0668479
63	0x3e763cd2	0.24046639
64	0x3e334c0a	0.17509475
65	0x39c0910c	0.00036729162
66	0xbce9009f	-0.028442679
67	0xbe0e3e34	-0.13890916
68	0x3e6dbe1e	0.23217055
69	0x3c862baa	0.016378243
70	0x3db47a8f	0.08812439
71	0x3c196f78	0.009364955
72	0x3db5873e	0.08863686
73	0xbe1d9586	-0.1538907
74	0xbdec0eb9	-0.115262456
75	0x3d3a5a1b	0.045496088
76	0x3e0af390	0.13569474
77	0x3d992b3e	0.07478951
78	0xbd874c96	-0.066064045
79	0xbdd46d38	-0.10372394
80	0x3e609ccc	0.21934813
81	0x3e4e3846	0.20138654
82	0x3e4f2c46	0.20231733
83	0xbd70e961	-0.058816317
84	0xbd3b0f18	-0.04566869
85	0xbde4fbc3	-0.11180832
86	0x3d80617c	0.06268594
87	0x3e3d1d4d	0.18468209
88	0x3dee2b3b	0.11629339
89	0x3e891b94	0.26778853
90	0xbd7457f3	-0.059654187
91	0x3d9a3a2b	0.07530626
92	0xbd098bd8	-0.03358063
93	0x3e44f28e	0.19233152
94	0xbdcc08b4	-0.099625975
95	0x3e284455	0.16432317
96	0xbe202deb	-0.15642516
97	0xbd07fdc6	-0.033201
98	0x3dd6b8db	0.10484477
99	0xbe183207	-0.14862834
100	0x3e4c17b9	0.19930924
101	0xbdd9fc0e	-0.10643779
102	0x3e410060	0.188478
103	0x3df09693	0.1174747
104	0x3dae03fd	0.084968545
105	0xbd9cbb1f	-0.07652878
106	0xbd29137c	-0.041278347
107	0x3e082f5f	0.1329932
108	0xbd6adb40	-0.057338
109	0xbd68236c	-0.056674406
110	0x3e61cc7a	0.22050658
111	0x3e4a84ef	0.19777273
112	0xbd2c6f1e	-0.042098157
113	0x3e5cc1e2	0.21558335
114	0xbcd6ffaa	-0.026244957
115	0x3e5c76bd	0.2152967
116	0x3e36c5b4	0.17848855
117	0x3e64e38f	0.22352432
118	0xbdd79211	-0.10525907
119	0x3e081e88	0.13292897
120	0x3e1bdd57	0.15221153
121	0x3d53426a	0.05157701
122	0xbbc2c137	-0.005943443
123	0xbdc9d343	-0.09854748
124	0xbb94c5f3	-0.004540199
125	0xbdd5ad1a	-0.10433407
126	0xbdb9456e	-0.09046446
127	0x3dba07de	0.09083532
128	0xbd09dc76	-0.033657514
129	0xbe1f26ff	-0.1554222
130	0xbe2371cd	-0.1596138
131	0xbb9d37c4	-0.0047979075
132	0x3d806af7	0.06270402
133	0xbe0bb9d4	-0.13645107
134	0x3e2d602e	0.16931221
135	0x3e299717	0.16561542
136	0xbe68ac98	-0.2272209
137	0xbc65b09e	-0.01401916
138	0xbe371d1e	-0.17882201
139	0x3c6c12ca	0.014408777
140	0xbddd565d	-0.10807488
141	0xbe57dc98	-0.21080244
142	0x3c78f28f	0.015194549
143	0xbe33b0eb	-0.17547958
144	0xbe31cbe4	-0.17362934
145	0x3bbfb137	0.005849983
146	0xbe57a794	-0.2106002
147	0x3dcec81f	0.10096764
148	0x3d05b562	0.032643683
149	0xbe4527f1	-0.19253518
150	0xbc38308c	-0.011242043
151	0xbdf45d01	-0.119318016
152	0xbe1a9681	-0.15096475
153	0xbdcaccc8	-0.0990234
154	0x3dd8dadc	0.10588619
155	0x3cae8dff	0.021307943
156	0xbc38e329	-0.011284628
157	0x3e2e18de	0.17001674
158	0xbe496ea3	-0.19671111
159	0xbe7312fe	-0.23737714
160	0xbe4a35e4	-0.1974712
161	0x3de97f58	0.11401242
162	0xbd1c4c24	-0.03815855
163	0xbca2fa9a	-0.019894887
164	0xbd331aee	-0.043726854
165	0xbd99c9c6	-0.07509188
166	0xbd3e28cc	-0.046425626
167	0xbd070937	-0.032967772
168	0x3df46e27	0.119350724
169	0x3d95633f	0.0729432
170	0x3e012690	0.12612367
171	0x3d0e2c56	0.03471025
172	0x3dc98262	0.09839322
173	0x3d9a8a60	0.07545924
174	0x3e086515	0.1331981
175	0xbdb53daf	-0.08849656
176	0x3c890223	0.016724652
177	0x3c861935	0.016369442
178	0xbda69de3	-0.08135583
179	0xbd6b3ee3	-0.05743302
180	0xbd1ad589	-0.0378013
181	0xbe58f522	-0.21187261
182	0x3e16a399	0.14710845
183	0xbe61b64c	-0.22042197
184	0xbb4a4ca0	-0.0030868426
185	0xbe2d878e	-0.16946241
186	0xbd9bb974	-0.07603732
187	0x3da6fd7e	0.081538185
188	0x3d699799	0.05702934
189	0x3d44ed60	0.04807794
190	0x3d7230fa	0.05912874
191	0x3e2ce042	0.16882423
192	0xbde4043e	-0.11133622
193	0x3d35fc0d	0.044429827
194	0x3d060ce5	0.03272714
195	0xbd57addc	-0.05265604
196	0x3e171205	0.14752968
197	0xbe0ba547	-0.13637267
198	0xbe5bed90	-0.21477342
199	0x3e394c98	0.18095624
200	0x3c51fccb	0.012816618
201	0x3e11551c	0.14192623
202	0x3df679bb	0.12034937
203	0x3e262fb2	0.16229132
204	0x3dbea707	0.09309202
205	0xbdae93e0	-0.08524299
206	0x3cea8100	0.028625965
207	0xbdbd84c2	-0.09253837
208	0xbe38e094	-0.1805442
209	0xbe6019e6	-0.2188488
210	0x3c2cc84c	0.010545801
211	0x3c594867	0.013261891
212	0xbe04f625	-0.12984522
213	0xbd8468f4	-0.06465331
214	0x3b6a52c0	0.003575489
215	0xbd679764	-0.05654086
216	0xbe40f6ee	-0.18844196
217	0x3e346bb2	0.17619208
218	0x3b9297b9	0.004473653
219	0x3d5176dd	0.051138747
220	0xbdf7554c	-0.12076816
221	0x3d33baaf	0.043879207
222	0x3e017c28	0.12645018
223	0xbca8befc	-0.020598881
224	0xbd6a2fd3	-0.057174515
225	0x3e0129f4	0.1261366
226	0x3d57335c	0.052539214
227	0xbe3dde04	-0.18541723
228	0x3e2e7ba8	0.17039359
229	0x3e24691b	0.1605572
230	0xbd1521db	-0.03640924
231	0xbd0475a6	-0.03233876
232	0xbe4d39a5	-0.20041521
233	0xbd93a764	-0.072096616
234	0xbe195d67	-0.14977036
235	0xbd10b93e	-0.03533291
236	0xbd81ebd0	-0.06343806
237	0x3c0e7e2d	0.008697075
238	0x3e21f42f	0.15815805
239	0x3d386d9b	0.045026403
240	0xbe5f412f	-0.2180221
241	0xbc22847a	-0.00991928
242	0xbe105bd6	-0.14097533
243	0xbe6cd65f	-0.23128651
244	0xbdd49bf7	-0.103813104
245	0x3d95851a	0.07300778
246	0xbdeba572	-0.115061656
247	0xbde32f4a	-0.11093004
248	0x3c270320	0.010193616
249	0x3e35a500	0.17738724
250	0xbd62d4e0	-0.055378795
251	0xbd7b80f8	-0.06140229
252	0x3e441be8	0.1915127
253	0x3cdd3860	0.02700442
254	0xbe1520e0	-0.14563322
255	0x3d1ae8de	0.037819736

lin.weight f4 [1, 64]
0	0x3d9b2aaa	0.07576497
1	0x3df2eb7b	0.118613206
2	0xbdaf1d52	-0.08550514
3	0xbdb87f07	-0.090086035
4	0xbb5b3b95	-0.0033452262
5	0x3dc044f3	0.09388151
6	0xbc8ae39a	-0.016954232
7	0xbad84dc4	-0.0016502668
8	0xbd247197	-0.04014739
9	0xbda2a1c7	-0.07941013
10	0x3d70743e	0.058704607
11	0x3def4263	0.11682584
12	0x3d6dd916	0.058068357
13	0xbdc4e06a	-0.09613116
14	0xbd007155	-0.03135808
15	0xbd6663c2	-0.05624748
16	0x3e114de1	0.14189865
17	0x3d964c8a	0.073388174
18	0x3dd8e3da	0.10590334
19	0xbd770a56	-0.06031259
20	0xbd85274e	-0.065016374
21	0x3c1b1e81	0.009467722
22	0x3dc055e1	0.0939138
23	0x3d7b46f6	0.06134697
24	0x3e0a5853	0.13510256
25	0x3d863abf	0.06554174
26	0x3e349abb	0.1763715
27	0xbd2bcf7c	-0.04194592
28	0x3d6ffcdc	0.058590755
29	0x3de52672	0.111889735
30	0x3e096cf0	0.13420463
31	0x3df20b76	0.11818592
32	0xbd7926a9	-0.060827885
33	0xbd5c3925	-0.053765435
34	0x3e0e08dd	0.13870569
35	0x3e036feb	0.12835662
36	0x3dda8321	0.10669542
37	0xbd904f08	-0.07046324
38	0xbd858df4	-0.06521216
39	0x3e2c7422	0.16841176
40	0xbd43e93c	-0.04782985
41	0x3bd90c9d	0.006623818
42	0xbd40065a	-0.046881057
43	0x3e1a92f3	0.15095119
44	0x3d9fa820	0.07795739
45	0x3bd75ef0	0.0065725967
46	0xbccc45d2	-0.024935637
47	0xbd54b90f	-0.051934298
48	0x3e137785	0.14401062
49	0x3c431491	0.011906759
50	0xbd510445	-0.051029462
51	0x3da961c0	0.082705975
52	0x3e179933	0.14804535
53	0xbce37bef	-0.027769057
54	0x3c2770a4	0.010219727
55	0x3dcefcc0	0.10106802
56	0x3e004e88	0.12529957
57	0xbda4c17e	-0.08044718
58	0x3d6ee0a9	0.05831972
59	0x3d09de9c	0.033659562
60	0x3e2935eb	0.16524474
61	0x3e2615d0	0.16219258
62	0x3e33c055	0.17553838
63	0xbd0fe4e9	-0.035130415
