models/GraphSAGE/GraphSAGE_best_model.pt (torch, 47028 bytes, 16 tensors)

conv1.lin_l.weight f4 [32, 27]
-0.07892341 0.017403703 -0.079850435 -0.01512063 -0.09216353 -0.045296002 0.10961278 0.02208603
-0.09285199 0.06846985 -0.107246496 0.015865594 0.16970013 0.21740381 0.18202941 -0.04895889
0.23430526 0.17701435 0.21812822 -0.14670879 0.057958223 -0.08997349 0.14401497 -0.010663583
-0.026684625 -0.07175379 0.12762195 -0.27355492 0.16855474 0.14019896 -0.27142388 -0.0740982
0.18141635 -0.1343365 0.014176338 0.13031937 0.02324381 0.15356627 -0.007781076 0.06819992
-0.045179654 0.13839248 -0.04072961 0.050119177 0.15684019 -0.084113166 -0.05292721 -0.16004942
0.07261371 -0.11286422 -0.013283786 0.16348153 0.17919876 0.1392902 -0.018281545 0.18102518
-0.23428145 -0.13247159 -0.18850465 0.18653417 0.2580439 0.22505099 0.21202421 0.100303344
-0.059747584 -0.07661523 -0.018360289 0.12247155 0.022517012 -0.12265592 0.2195318 0.2240841
0.19596015 0.08667925 0.04491997 0.20463005 0.057318073 -0.05881033 -0.0439856 0.0128795095
0.14408939 0.10948084 -0.027916687 -0.087387614 -0.13870399 -0.04763177 0.19214582 0.034782097
-0.01969312 -0.030669207 0.09335002 0.17718032 0.1361333 -0.117552795 -0.08312895 0.26266003
0.20257191 0.22993204 0.24840164 -0.043298736 -0.040446505 0.23174183 0.09947745 0.078629516
0.29370707 0.1947888 -0.018982321 0.17851725 -0.032233756 -0.03820543 -0.028101932 -0.034139078
-0.071630284 -0.06124852 0.040482033 -0.03276395 0.038715668 -0.1595334 0.041028745 0.1046795
-0.093157835 -0.021062125 -0.17901988 -0.11239377 0.23639007 0.14461793 0.10684961 -0.16537477
-0.006321151 0.23274979 -0.14166419 -0.022867242 0.16862197 0.06452223 -0.1471766 -0.100005805
0.009265387 -0.21734844 -0.38567206 -0.2734669 0.3342889 -0.090771295 0.28397503 0.10206647
0.1525459 -0.036923338 -0.34924224 0.057268634 -0.3002252 0.09163337 0.17068791 0.2257014
0.12168611 0.22587895 -0.11749639 0.18024053 -0.15464078 0.017245473 0.16081847 0.2250135
0.11746389 0.14954564 0.16483559 0.123494454 0.19875559 0.09255009 0.05264234 0.14666158
-0.25707877 -0.18356661 0.048892625 0.12771112 0.0103592295 -0.009702386 0.12505032 0.2265306
0.05704458 -0.20572889 0.016976764 0.091787994 -0.1141728 -0.18327387 -0.032391142 0.022462133
0.32367358 -0.1909682 0.10115803 0.09887818 -0.029978225 0.089583114 0.0075656585 -0.03139475
-0.088149995 -0.027928883 0.20673874 0.058750384 0.17211145 0.24295203 0.14381713 0.18107194
0.0017221199 0.24280106 0.121815756 -0.059507076 -0.08512528 0.17524809 0.10553163 0.24453299
0.12755625 0.09937815 -0.028950816 0.1777805 0.018915195 0.24040501 0.17245845 0.16181421
-0.14433143 -0.16050461 -0.056300152 -0.31314555 0.16131961 -0.1121469 0.14278297 0.17210345
0.07024254 -0.059018895 0.07127165 -0.038218036 -0.050455797 -0.014930638 0.07953644 0.061352577
0.13754483 0.26721355 -0.10966275 -0.0039498205 -0.0013589272 0.21209629 0.07447574 0.27567148
0.13272728 0.27371734 -0.036218185 -0.3043674 0.51658136 -0.35801136 -0.16054316 -0.38444448
0.058916636 -0.12805337 -0.2565436 0.20721753 -0.036573544 -0.048838325 0.13873143 -0.21942838
00000000: 99a2 a1bd 3692 8e3c a088 a3bd 85bc 77bc
00000010: 3cc0 bcbd 4d88 39bd aa7c e03d c3ed b43c
00000020: 2f29 bebd ec39 8c3d 0da4 dbbd 90f8 813c
00000030: dfc5 2d3e 1b9f 5e3e eb65 3a3e 1e89 48bd
00000040: b8ed 6f3e 4043 353e 015d 5f3e d43a 16be
00000050: 9a65 6d3d 0544 b8bd a978 133e 4fb6 2ebc
00000060: b799 dabc a7f3 92bd 54af 023e 640f 8cbe
00000070: 9d99 2c3e 5190 0f3e 12f8 8abe ccc0 97bd
00000080: 35c5 393e 828f 09be df43 683c 7172 053e
00000090: cd69 be3c 7a40 1d3e 65f8 febb 66ac 8b3d
000000a0: 4d0e 39bd c2b6 0d3e 17d4 26bd c449 4d3d
000000b0: b79a 203e 8643 acbd 34ca 58bd ffe3 23be
000000c0: 7fb6 943d 5b25 e7bd 3da4 59bc b467 273e
000000d0: e17f 373e 17a2 0e3e 2ec3 95bc aa5e 393e
000000e0: 7ae7 6fbe a2a6 07be 5d07 41be d002 3f3e
000000f0: 541e 843e c473 663e e01c 593e d76b cd3d
00000100: e2b9 74bd 72e8 9cbd 5168 96bc 5dd2 fa3d
00000110: 9975 b83c 0733 fbbd f2cc 603e 4d76 653e
00000120: c7a9 483e e484 b13d 01fe 373d 8a8a 513e
00000130: 5bc6 6a3d 1ae3 70bd 3f2a 34bd 9404 533c
00000140: 2b8c 133e 7e37 e03d 89b1 e4bc 47f8 b2bd
00000150: 6b08 0ebe 8819 43bd e0c1 443e ac77 0e3d
00000160: 7753 a1bc fd3d fbbc 4c2e bf3d c26e 353e
00000170: 8766 0b3e 85bf f0bd 833f aabd 607b 863e
00000180: 036f 4f3e 4e73 6b3e 005d 7e3e 045a 31bd
00000190: 3cab 25bd bb4d 6d3e d5ba cb3d 8308 a13d
000001a0: c660 963e b776 473e d080 9bbc 3acd 363e
000001b0: 8b07 04bd 4c7d 1cbd 0636 e6bc 6bd5 0bbd
000001c0: e6b2 92bd badf 7abd 7dd0 253d 7e33 06bd
000001d0: 5294 1e3d b95c 23be c20d 283d 3562 d63d
000001e0: 89c9 bebd 7a8a acbc fd50 37be b42e e6bd
000001f0: 3d10 723e b916 143e f8d3 da3d 0158 29be
00000200: a821 cfbb f655 6e3e 6b10 11be 1554 bbbc
00000210: 3dab 2c3e 3b24 843d 76b5 16be d8cf ccbd
00000220: dacd 173c 9790 5ebe cf76 c5be db03 8cbe
00000230: ea27 ab3e 4de6 b9bd 2d65 913e 3a08 d13d
00000240: fe34 1c3e ed3c 17bd e1cf b2be 8492 6a3d
00000250: 1eb7 99be 47aa bb3d d0c8 2e3e 451e 673e
00000260: 9136 f93d d04c 673e f3a1 f0bd f990 383e
00000270: 275a 1ebe 6146 8d3c 99ad 243e f069 663e
00000280: e890 f03d 7e22 193e a9ca 283e a9ea fc3d
00000290: 9686 4b3e e78a bd3d 7f9f 573d 742e 163e
000002a0: d49f 83be e3f8 3bbe a243 483d b4c6 023e
000002b0: c2b9 293c c2f6 1ebc 310d 003e a3f7 673e
000002c0: 94a7 693d 98aa 52be db12 8b3c 58fb bb3d
000002d0: 6ed3 e9bd 25ac 3bbe 93ac 04bd 8202 b83c
000002e0: 8bb8 a53e 2b8d 43be f12b cf3d a580 ca3d
000002f0: e594 f5bc 5a77 b73d 58e9 f73b c897 00bd
00000300: fc87 b4bd 1dcb e4bc 52b3 533e 3ea4 703d
00000310: fc3d 303e 6bc8 783e cc44 133e ec6a 393e
00000320: c1b8 e13a d7a0 783e 8a7a f93d b1bd 73bd
00000330: 2a56 aebd 3c74 333e f820 d83d db66 7a3e
00000340: 1b9e 023e c686 cb3d 432a edbc 170c 363e
00000350: 0af4 9a3c bb2c 763e f398 303e a0b2 253e
00000360: 9ecb 13be 525b 24be fd9a 66bd 9d54 a0be
00000370: f830 253e 46ad e5bd b335 123e e33b 303e
00000380: 52db 8f3d ccbd 71bd dff6 913d 848a 1cbd
00000390: bdaa 4ebd a29f 74bc 00e4 a23d d74c 7b3d
000003a0: 8dd8 0c3e 37d0 883e dd96 e0bd 7f6d 81bb
000003b0: 081e b2ba c52f 593e bd86 983d d024 8d3e
000003c0: a9e9 073e ae24 8c3e 8559 14bd 0bd6 9bbe
000003d0: ad3e 043f 444d b7be 6d65 24be e8d5 c4be
000003e0: 9252 713d 6c20 03be af59 83be d530 543e
000003f0: 24ce 15bd b20a 48bd 9d0f 0e3e d5b1 60be

conv1.lin_l.bias f4 [32]
-0.09086315 -0.033941302 0.07057714 0.09376917 -0.08408781 0.15399268 -0.17756988 0.19959348
0.033181414 -0.045766886 -0.06256576 0.19080743 0.19598459 0.13200778 0.042204525 0.19923885
0.2286071 0.06475241 -0.13652092 -0.13628422 0.15448864 -0.015835417 0.11330099 0.12338542
0.049864583 -0.096843585 0.0098377755 0.22218265 -0.07217574 -0.050433233 0.025551438 0.007991668
00000000: 7616 babd 0906 0bbd bf8a 903d 0d0a c03d
00000010: 3b36 acbd 42b0 1d3e e1d4 35be 3c62 4c3e
00000020: 3ce9 073d 0f76 3bbd 7a22 80bd 0663 433e
00000030: 2fb0 483e 0c2d 073e a7de 2c3d 4505 4c3e
00000040: fb17 6a3e e99c 843d 24cc 0bbe 178e 0bbe
00000050: 4532 1e3e 47b9 81bc 590a e83d 7fb1 fc3d
00000060: ce3e 4c3d ee55 c6bd 9f2e 213c d983 633e
00000070: e0d0 93bd 1493 4ebd 4051 d13c 7cef 023c

conv1.lin_r.weight f4 [32, 27]
-0.20330828 0.1271741 -0.1262655 -0.18250993 0.014722002 -0.12415834 0.059974916 0.10685099
-0.030939782 -0.11504779 -0.01885932 0.085903846 0.029774554 -0.01526806 0.14323603 0.20211993
0.23970136 0.09979449 -0.017024942 0.06948351 -0.08330511 0.122271344 -0.017456952 0.10839285
0.028758219 -0.042914443 0.0415837 0.11125041 -0.16032898 -0.075365625 -0.047570292 -0.06877618
-0.00995838 0.07865594 -0.0756664 -0.008101809 0.031262018 -0.08148483 0.03235895 -0.116983995
0.13687691 0.17352276 -0.13282329 0.12949175 -0.09551908 0.015778126 0.22205473 0.07518042
-0.034714494 -0.08804959 0.047939945 0.14848928 0.021018961 -0.15346575 0.17069839 -0.088206775
-0.056258876 -0.10489856 0.13250731 0.24021226 -0.09171108 -0.044863697 0.059740625 0.20810659
-0.024579361 -0.0122264335 -0.08372729 -0.05325032 0.17960441 0.24999017 0.092175595 0.23196805
0.1269015 -0.089812234 0.08029605 0.025132826 0.0069246483 0.24398206 0.16851233 0.05432087
0.049877226 -0.18176572 0.18738855 0.09740153 0.06231567 -0.08822105 0.07094511 0.038220882
0.09045075 0.024559561 0.013482372 -0.099844724 0.07643345 0.08911314 0.08248303 0.08015511
0.193177 0.10662282 0.21820237 0.1320603 0.08369682 0.19190416 0.18097073 0.038144026
0.22672561 0.09981349 0.1903374 0.056467958 0.11242294 0.17285141 -0.039799385 -0.17611219
0.15992777 0.12573427 0.17735519 -0.20740959 0.17022401 -0.007479608 -0.08775908 0.25776443
-0.015280691 0.33984438 -0.09421377 -0.1406686 0.40225792 0.085000314 0.112719126 -0.22998245
-0.16613549 0.1201735 -0.117789574 0.072020166 0.08113656 0.38576713 -0.180711 -0.0864475
0.18239963 0.14215237 -0.37431428 -0.0050919564 -0.32355392 -0.07056764 0.14369823 0.16655545
0.12426981 0.28418413 0.3432179 0.1851258 0.09521367 0.11684802 -0.08948549 -0.05263507
0.2295937 0.36678553 0.3666725 -0.020039717 0.26471704 0.019092236 0.47409123 0.07645572
0.15856685 -0.00519576 0.06168753 -0.23507358 -0.13366377 -0.1671111 -0.08484044 -0.34655082
-0.31904948 0.30000556 0.16663276 0.13234906 0.17083141 0.050869185 0.14337249 0.15518491
0.14203325 0.020405503 0.1414393 0.5168497 0.1005476 -0.15507182 0.15723188 0.23891343
0.21197948 -0.27963054 -0.09478235 0.05665224 0.12900011 -0.06282019 -0.08300374 -0.14985651
-0.045254335 -0.056872997 -0.009470748 0.04100608 0.14560264 0.059908714 -0.06153429 -0.010697513
0.1908853 0.25066623 0.05814943 0.033310603 -0.10002389 0.051750284 0.1931325 -0.017561061
-0.011168543 -0.01400041 0.21872945 0.20244825 -0.06512765 0.19292872 0.20949434 0.100798406
-0.06579435 -0.08813999 -0.16088605 -0.113888435 -0.045481462 -0.39464054 0.18526374 0.2017908
0.034587294 0.12850386 0.06584371 0.08314743 0.14473523 -0.15981504 0.056897294 -0.1781274
-0.121460095 0.0060056327 0.33909366 -0.19862033 0.091305465 0.074932 0.008445061 0.26530084
0.007804866 0.09582089 0.10965714 0.04394788 -0.074354 0.1048236 -0.19121115 0.08011659
-0.5123501 -0.0714489 -0.10504117 -0.0620894 0.027040547 -0.07668375 -0.13839434 0.17061211
00000000: 0c30 50be ed39 023e be4b 01be e2e3 3abe
00000010: 8d34 713c ba46 febd 42a8 753d b1d4 da3d
00000020: 6d75 fdbc 2d9e ebbd dc7e 9abc 5bee af3d
00000030: c4e9 f33c e326 7abc 77ac 123e 87f8 4e3e
00000040: 4674 753e 0e61 cc3d e477 8bbc 5f4d 8e3d
00000050: df9b aabd 6669 fa3d e201 8fbc 12fd dd3d
00000060: 5b96 eb3c 0ec7 2fbd ab53 2a3d 41d7 e33d
00000070: 482d 24be 4b59 9abd 11d9 42bd 87da 8cbd
00000080: 7928 23bc 5e16 a13d fcf6 9abd 73bd 04bc
00000090: 9a0c 003d 85e1 a6bd d18a 043d 4e95 efbd
000000a0: 7629 0c3e f3af 313e d402 08be 7c99 043e
000000b0: 829f c3bd 2141 813c 5162 633e 31f8 993d
000000c0: c930 0ebd 5853 b4bd ad5c 443d 930d 183e
000000d0: f52f ac3c 2026 1dbe 8fcb 2e3e c1a5 b4bd
000000e0: b56f 66bd 0ed5 d6bd ffaf 073e 34fa 753e
000000f0: 05d3 bbbd ffc2 37bd 96b2 743d e519 553e
00000100: a85a c9bc 6151 48bc 3779 abbd 021d 5abd
00000110: 38ea 373e 6cfd 7f3e 8fc6 bc3d 0889 6d3e
00000120: 78f2 013e 7aef b7bd 4172 a43d 5be3 cd3c
00000130: 29e8 e23b 6fd6 793e 7f8e 2c3e 907f 5e3d
00000140: 104c 4c3d cb20 3abe c9e2 3f3e 747a c73d
00000150: b73e 7f3d 3dad b4bd ab4b 913d 808d 1c3d
00000160: 3e3e b93d 2231 c93c 2be5 5c3c 647b ccbd
00000170: 2489 9c3d f380 b63d ddec a83d 5d28 a43d
00000180: 31d0 453e 115d da3d 7170 5f3e d13a 073e
00000190: 3d69 ab3d 8682 443e 6450 393e e93c 1c3d
000001a0: c22a 683e 046b cc3d cfe7 423e f24a 673d
000001b0: 003e e63d f6ff 303e ae04 23bd c156 34be
000001c0: 1bc4 233e 7cc0 003e 999c 353e 2e63 54be
000001d0: 344f 2e3e 8017 f5bb 08bb b3bd b3f9 833e
000001e0: dd5b 7abc 1500 ae3e 26f3 c0bd 6e0b 10be
000001f0: c0f4 cd3e a514 ae3d 49d9 e63d 8580 6bbe
00000200: 6c1f 2abe 861d f63d a93b f1bd 4f7f 933d
00000210: ed2a a63d 4583 c53e 4e0c 39be 630b b1bd
00000220: f8c6 3a3e 6490 113e 1fa6 bfbe 6dda a6bb
00000230: dca8 a5be c485 90bd a125 133e 838d 2a3e
00000240: 2c81 fe3d 9580 913e 42ba af3e 9e91 3d3e
00000250: 62ff c23d 044e ef3d 2b44 b7bd df97 57bd
00000260: 9c1a 6b3e 50cb bb3e 7fbc bb3e 552a a4bc
00000270: fe88 873e 5267 9c3c 16bc f23e d194 9c3d
00000280: 595f 223e 3241 aabb 10ac 7c3d 21b7 70be
00000290: 28df 08be 2c1f 2bbe d3c0 adbd 1c6f b1be
000002a0: 745a a3be 549a 993e c7a1 2a3e 8386 073e
000002b0: 6eee 2e3e 355c 503d 3dd0 123e cbe8 1e3e
000002c0: 2a71 113e 7129 a73c 77d5 103e 4350 043f
000002d0: e6eb cd3d 26cb 1ebe 6501 213e b9a5 743e
000002e0: 2611 593e bc2b 8fbe 401d c2bd 2e0c 683d
000002f0: 9b18 043e dfa7 80bd ddfd a9bd fc73 19be
00000300: 9c5c 39bd a9f3 68bd 322b 1bbc fef5 273d
00000310: dc18 153e d762 753d 610b 7cbd 9f44 2fbc
00000320: 7077 433e 5357 803e 192e 6e3d b370 083d
00000330: 53d9 ccbd 1bf8 533d 87c4 453e 37dc 8fbc
00000340: 44fc 36bc fa61 65bc 9dfa 5f3e 984e 4f3e
00000350: a561 85bd 1b8f 453e af85 563e 656f ce3d
00000360: 30bf 86bd bd82 b4bd 50bf 24be 573e e9bd
00000370: c54a 3abd 530e cabe c7b5 3d3e 3fa2 4e3e
00000380: 68ab 0d3d 8496 033e 11d9 863d 3349 aa3d
00000390: 7935 143e 8ea6 23be 230d 693d 0767 36be
000003a0: 12c0 f8bd e6ca c43b af9d ad3e 2163 4bbe
000003b0: 5cfe ba3d f375 993d 275d 0a3c 83d5 873e
000003c0: f6bf ff3b be3d c43d ec93 e03d b102 343d
000003d0: e946 98bd c1ad d63d dbcc 43be 2b14 a43d
000003e0: 6029 03bf cd53 92bd d31f d7bd 7451 7ebd
000003f0: 2384 dd3c 5f0c 9dbd 3fb7 0dbe f1b4 2e3e

convs.0.lin_l.weight f4 [32, 32]
-0.016694512 -0.13079865 -0.09241983 -0.11011218 0.031151695 -0.07026048 -0.02266679 -0.07486279
-0.092338845 -0.5589026 0.1473628 -0.03313417 0.040825155 0.13988164 0.0121706445 -0.06811155
-0.036316667 0.03746501 -0.1265849 0.02821801 0.009489118 0.08160429 0.055033963 0.09102162
-0.059792873 -0.068674535 0.037809223 0.13756531 -0.006134404 -0.088480555 0.0048240377 0.13192342
-0.05373753 -0.04119747 0.012435267 -0.018510487 0.07286225 0.12454027 -0.0007314146 0.037217453
0.22370335 0.034749605 -0.07094764 0.18209825 0.031154057 -0.0835107 -0.03364098 0.07951484
-0.06628493 0.109212704 -0.04037563 -0.060593408 0.10712025 -0.098385565 -0.12832941 0.0053965375
-0.10329197 -0.13807915 -0.050375715 0.096675344 0.16019695 0.11450731 0.007876279 0.032787506
0.13851316 0.18051621 0.21205768 0.07797784 0.10720825 0.1979603 -0.021710532 0.094292276
-0.024937319 0.10626213 -0.11359974 0.01940341 -0.05891599 0.1641214 0.0788803 -0.0662251
0.016178934 -0.048659716 0.06168266 0.10671572 0.086957775 0.0521108 0.09718917 -0.086045496
-0.010616692 0.06865948 0.11742836 0.20198794 0.013629972 0.14970498 0.0017829365 -0.009929634
0.044247013 -0.08773395 -0.0916586 -0.11287664 -0.011985966 -0.061194286 0.061995532 0.061252266
0.052256588 -0.18177578 -0.19652136 0.13436577 0.13505253 -0.0074838772 0.01389827 0.14722002
-0.19377294 -0.14843857 0.052528888 -0.074333966 -0.1116865 -0.1183663 0.050244942 -0.035405397
-0.20576222 0.009213047 -0.17587855 -0.023053948 -0.20270793 0.23554598 -0.17222314 0.2378638
0.137272 -0.14539158 -0.07140316 0.08022817 -0.113835156 0.22407977 -0.10096121 0.11574623
0.009935046 -0.31640854 -0.14337005 -0.1550917 0.03338354 -0.07362081 0.16616319 0.13372858
0.01809495 0.1768969 0.03131731 0.11698188 -0.13578625 0.0061585573 0.11638254 -0.12569402
-0.13698092 -0.1377826 -0.03676407 -0.042088844 -0.023442235 0.21172586 0.011393437 0.21673551
0.0039182464 -0.25172964 0.09308615 -0.24653241 0.16421506 -0.6461231 0.21971525 0.010710856
-0.044608504 0.010821524 -0.044395156 0.04913387 0.08364778 -0.30123973 -0.2014397 0.1088222
-0.061763246 -0.08248215 0.21011549 -0.14331806 -0.13194099 0.0869438 -0.13648622 0.021194449
0.0938212 0.47120062 0.11172369 -0.25967908 0.11115567 0.112944074 -0.20396875 0.14766048
0.025038917 -0.101497926 0.13597018 -0.0830992 0.021186776 0.12413673 -0.0023052434 0.15997119
0.17993623 -0.067022815 -0.12603986 0.21369967 0.20887606 0.17544973 0.16296433 -0.039987113
0.086128145 0.004390177 -0.047440935 0.21185209 0.019008117 0.21750414 0.106458776 -0.11504762
0.12919304 0.07288169 0.13555813 0.18992537 0.018989628 0.10203928 -0.023956226 0.0039947922
0.18664029 0.11599512 -0.04344328 0.1308429 -0.01649375 0.1008279 -0.016314385 -0.07671908
0.13741373 -0.010578046 0.041860566 -0.13179155 0.09840091 0.064667955 0.029077442 -0.07117208
0.010384611 0.12853467 0.13908845 0.0066880295 0.012571858 0.025137022 0.17733963 -0.018741176
0.045592297 0.13143702 0.16617489 -0.016575128 -0.1339856 0.05572471 0.12500411 -0.004819553
00000000: eec2 88bc 15f0 05be 9c46 bdbd 7f82 e1bd
00000010: d731 ff3c bae4 8fbd b4af b9bc aa51 99bd
00000020: 261c bdbd 3e14 0fbf 46e6 163e b2b7 07bd
00000030: 4738 273d 223d 0f3e 6267 473c 117e 8bbd
00000040: c9c0 14bd e974 193d 799f 01be 7529 e73c
00000050: 3f78 1b3c 2620 a73d 4b6b 613d 8b69 ba3d
00000060: 5fe9 74bd 3ca5 8cbd d8dd 1a3d ecdd 0c3e
00000070: 1c03 c9bb 4b35 b5bd f612 9e3b ef16 073e
00000080: e21b 5cbd aebe 28bd 4abd 4b3c 4ea3 97bc
00000090: ce38 953d f80e ff3d 67bc 3fba 5471 183d
000000a0: 7e12 653e 9a55 0e3d ff4c 91bd f777 3a3e
000000b0: cb36 ff3c a807 abbd 20cb 09bd add8 a23d
000000c0: 65c0 87bd e9aa df3d eb60 25bd cb30 78bd
000000d0: dd61 db3d 5f7e c9bd c968 03be 70d5 b03b
000000e0: be8a d3bd 9f64 0dbe c456 4ebd b9fd c53d
000000f0: ab0a 243e cf82 ea3d 820b 013c 314c 063d
00000100: 65d6 0d3e 3ed9 383e a625 593e d9b2 9f3d
00000110: 0090 db3d 1bb6 4a3e 49da b1bc 4f1c c13d
00000120: 5949 ccbc f69f d93d fba6 e8bd e6f3 9e3c
00000130: e551 71bd 710f 283e ff8b a13d 06a1 87bd
00000140: af89 843c 694f 47bd f5a6 7c3d c58d da3d
00000150: eb16 b23d 2272 553d 1e0b c73d 9f38 b0bd
00000160: a2f1 2dbc 579d 8c3d 487e f03d edd5 4e3e
00000170: 3f50 5f3c 434c 193e 6cb1 e93a e7af 22bc
00000180: 5b3c 353d dbad b3bd 81b7 bbbd de2b e7bd
00000190: c960 44bc dca6 7abd 07ef 7d3d a8e3 7a3d
000001a0: 010b 563d 6e23 3abe e53c 49be 2e97 093e
000001b0: 364b 0a3e 503b f5bb 92b5 633c d8c0 163e
000001c0: 6a6c 46be 4800 18be 8828 573d 683c 98bd
000001d0: e4bb e4bd 086a f2bd a4cd 4d3d 4005 11bd
000001e0: 55b3 52be 52f2 163c 8219 34be a2db bcbc
000001f0: ab92 4fbe f732 713e 435b 30be 9192 733e
00000200: 0891 0c3e 88e1 14be d23b 92bd ab4e a43d
00000210: 6822 e9bd 2b75 653e c0c4 cebd 5c0c ed3d
00000220: 9ac6 223c 4d00 a2be 99cf 12be 5cd0 1ebe
00000230: 2ebd 083d 82c6 96bd af26 2a3e 25f0 083e
00000240: dc3b 943c 7624 353e 9446 003d 3294 ef3d
00000250: 8d0b 0bbe b9cd c93b f859 ee3d efb5 00be
00000260: ba44 0cbe e216 0dbe ec95 16bd 5a65 2cbd
00000270: ee09 c0bc aace 583e 8aab 3a3c eaef 5d3e
00000280: a264 803b b5e2 80be f4a3 be3d fe72 7cbe
00000290: fe27 283e 5368 25bf 09fd 603e 967c 2f3c
000002a0: 68b7 36bd c34c 313c b2d7 35bd 9940 493d
000002b0: 874f ab3d 183c 9abe 3546 4ebe 2cde de3d
000002c0: 75fb 7cbd 67ec a8bd 8428 573e f8c1 12be
000002d0: 8a1b 07be 970f b23d 0bc3 0bbe fb9f ad3c
000002e0: 5425 c03d 3541 f13e 64cf e43d a8f4 84be
000002f0: 95a5 e33d 394f e73d 2fdd 50be 4f34 173e
00000300: 6a1e cd3c 25de cfbd c43b 0b3e ea2f aabd
00000310: e48f ad3c 663b fe3d 9113 17bb 7dcf 233e
00000320: 3441 383e 4243 89bd 9810 01be 16d4 5a3e
00000330: 9be3 553e 18a9 333e 1fe0 263e 87c9 23bd
00000340: f463 b03d 79db 8f3b 6d51 42bd c1ef 583e
00000350: e9b6 9b3c 68b9 5e3e 0f07 da3d 169e ebbd
00000360: 2e4b 043e ff42 953d c0cf 0a3e cc7b 423e
00000370: 2390 9b3c f8f9 d03d d93f c4bc bfe6 823b
00000380: a21e 3f3e d98e ed3d 95f1 31bd aefb 053e
00000390: e71d 87bc dc7e ce3d bfa5 85bc e51e 9dbd
000003a0: 2fb6 0c3e 8a4f 2dbc fc75 2b3d 5df4 06be
000003b0: 6b86 c93d a270 843d d133 ee3c abc2 91bd
000003c0: 3724 2a3c 989e 033e 346d 0e3e 4227 db3b
000003d0: 32fa 4d3c 28ec cd3c 8598 353e 1887 99bc
000003e0: fdbe 3a3d 6d97 063e c029 2a3e 90c8 87bc
000003f0: 8533 09be 983f 643d 1401 003e 57ed 9dbb

convs.0.lin_l.bias f4 [32]
0.113631174 0.12753983 0.03713221 0.05694178 0.0612886 -0.06296185 -0.026535293 0.18434216
0.08978075 0.1926126 -0.09343632 -0.09007564 0.18831481 0.14622192 -0.12663081 -0.1288414
0.03697837 -0.031171367 0.13480476 -0.044379044 0.03905525 0.128061 -0.05058952 -0.0025127628
-0.009313127 -0.08968174 -0.16200389 0.13269973 0.11989234 0.1015134 -0.09638279 -0.06731572
00000000: 76b7 e83d cd99 023e f217 183d c93b 693d
00000010: c109 7b3d 24f2 80bd 8b60 d9bc 31c4 3c3e
00000020: f8de b73d 3d3c 453e 8b5b bfbd 9479 b8bd
00000030: 99d5 403e 33bb 153e 82ab 01be 00ef 03be
00000040: a276 173d 185b ffbc 420a 0a3e cdc6 35bd
00000050: 66f8 1f3d 6c22 033e f536 4fbd 2aad 24bb
00000060: 1696 18bc 0fab b7bd 59e4 25be 70e2 073e
00000070: 1d8a f53d 42e6 cf3d 5764 c5bd d3dc 89bd

convs.0.lin_r.weight f4 [32, 32]
-0.14840776 -0.0046923687 -0.14463162 0.0361425 0.07929026 0.17550917 0.026540753 0.0293775
0.05889242 0.21758255 -0.07578595 0.11212304 0.0034898268 -0.14182752 0.23056628 0.18612231
0.022817837 -0.11758753 -0.11774246 -0.07864491 -0.15715447 -0.039748542 -0.15658964 0.119224034
-0.0249959 -0.202814 -0.011278414 0.21540363 -0.089850314 0.17517632 0.056461066 -0.13022144
-0.07186814 -0.034367267 -0.074703716 0.20876715 0.15535337 -0.07046857 -0.05798107 0.1391265
-0.09808834 -0.31187877 -0.07086451 0.15222791 0.056553535 -0.063916355 -0.11926989 -0.006492108
0.05565906 0.1861177 0.14495593 -0.031679634 0.16536488 0.1684857 0.14937134 -0.023633102
0.027580982 -0.0034425983 -0.111639515 0.18609902 0.20756838 0.22714464 0.07650737 0.122402705
-0.13567472 0.00829236 0.18939143 0.10083424 0.046790678 0.013042861 -0.14154187 -0.07684756
-0.096682824 -0.034782317 0.18262593 0.2062603 0.104250975 0.048497673 0.0055845436 0.033689328
-0.07208317 0.13174006 0.12310859 -0.13920085 0.064135574 0.02645772 0.17601736 -0.031165907
0.0074839145 -0.085191295 -0.047062628 -0.08775196 0.028837442 0.04179121 -0.010689232 0.15841158
0.047686037 0.015011596 -0.04269226 0.0426573 -0.019883344 0.39181748 -0.020664308 -0.0702203
0.18329331 0.32673463 -0.077638075 0.094193615 -0.065520175 0.15078153 0.02855398 -0.10688222
-0.13087206 0.042888004 -0.20789136 -0.06813455 -0.12250293 -0.12574404 -0.18057951 0.09319972
0.095713146 0.073739536 0.098752216 0.038894437 -0.2155306 -0.030232193 0.113093056 -0.115167916
0.03852179 -0.01050502 0.05358342 -0.10523412 0.09790432 0.119683124 -0.11444689 -0.018431926
0.020096276 -0.105646566 -0.11666443 0.040881403 0.026872693 0.05357584 0.18323816 -0.054734904
-0.0006333435 0.12515713 -0.106526025 0.146883 0.14080907 0.18874669 0.14884515 -0.04336941
0.1909687 -0.020409396 0.11845702 0.047206227 0.18356708 -0.09553067 0.089920886 0.15367842
0.34583077 0.37757918 -0.049084608 -0.13708147 -0.3346698 0.39172927 0.43345937 0.04085839
0.43088567 0.53302014 0.15285923 0.24447037 0.003336851 0.21242635 -0.1634594 0.317372
0.047057264 0.018989807 -0.17430343 0.21045087 -0.19354108 -0.37787187 -0.016584571 0.09366633
-0.18008007 0.2805044 -0.068830885 -0.29141816 -0.16499104 -0.13003445 0.15217155 0.44106716
0.05242368 0.08640366 0.11628835 -0.0074435007 -0.05367544 0.19636062 0.08861593 -0.060737755
-0.056785125 -0.020335356 -0.038829416 0.08473899 0.07493335 0.040375993 0.19826697 0.114366874
0.12156218 0.054570682 0.19963664 -0.09954241 0.18948716 0.042732395 0.023244888 0.2024005
0.03379591 -0.11839382 0.16690546 -0.082529694 -0.04068253 -0.0964969 0.13377598 -0.0126335975
0.19492076 0.09061024 0.17656855 0.115223266 0.021132879 0.071443915 -0.12877336 -0.12925066
-0.02423276 -0.30952358 0.02709791 -0.066003785 0.017079256 0.03083875 0.17728819 0.04753595
0.18161191 0.06681034 -0.055590466 -0.09687126 0.019184357 0.03031422 0.041989077 -0.052863456
-0.0892124 -0.1416195 0.11777241 0.11094282 -0.0505023 0.018254412 -0.008415621 -0.115868084
00000000: 34f8 17be 71c2 99bb 501a 14be 280a 143d
00000010: ef62 a23d adb8 333e fe6b d93c 15a9 f03c
00000020: 2e39 713d f6cd 5e3e aa35 9bbd c4a0 e53d
00000030: 94b5 643b 3c3b 11be 9119 6c3e d996 3e3e
00000040: 79ec ba3c bbd1 f0bd f522 f1bd 9510 a1bd
00000050: 1aed 20be 5ecf 22bd 0959 20be bb2b f43d
00000060: 34c4 ccbc 79ae 4fbe 19c9 38bc c592 5c3e
00000070: 7103 b8bd 6c61 333e b843 673d c558 05be
00000080: 9a2f 93bd b1c4 0cbd 43fe 98bd 0ec7 553e
00000090: f414 1f3e d351 90bd 8f7d 6dbd 2d77 0e3e
000000a0: 8ae2 c8bd 93ae 9fbe 6a21 91bd a2e1 1b3e
000000b0: aea4 673d 94e6 82bd c643 f4bd c0bb d4bb
000000c0: c1fa 633d a395 3e3e 546f 143e 81c2 01bd
000000d0: 6955 293e 8487 2c3e cdf4 183e 359a c1bc
000000e0: 83f1 e13c 379d 61bb 42a3 e4bd be90 3e3e
000000f0: ce8c 543e 9b98 683e e5af 9c3d 45ae fa3d
00000100: 50ee 0abe aedc 073c d4ef 413e 2f82 ce3d
00000110: 95a7 3f3d b9b1 553c 5af0 10be 4162 9dbd
00000120: a501 c6bd e777 0ebd 4b02 3b3e e635 533e
00000130: 8981 d53d 7fa5 463d 8cfe b63b d2fd 093d
00000140: 57a0 93bd dee6 063e 5b20 fc3d ab8a 0ebe
00000150: 8359 833d dcbd d83c e53d 343e a54f ffbc
00000160: a03b f53b c678 aebd bec4 40bd 4db7 b3bd
00000170: 803c ec3c 432d 2b3d e321 2fbc a536 223e
00000180: 6f52 433d 32f3 753c 14de 2ebd 6cb9 2e3d
00000190: 65e2 a2bc 4d9c c83e 3248 a9bc a9cf 8fbd
000001a0: 3eb1 3b3e c349 a73e b600 9fbd 95e8 c03d
000001b0: 712f 86bd 7966 1a3e 09ea e93c 11e5 dabd
000001c0: 5303 06be 55ab 2f3d 79e1 54be 208a 8bbd
000001d0: d1e2 fabd 0cc3 00be d6e9 38be 7fdf be3d
000001e0: 4105 c43d c104 973d 9a3e ca3d c64f 1f3d
000001f0: 0eb4 5cbe 81a9 f7bc 559d e73d 28dd ebbd
00000200: 06c9 1d3d 3f1d 2cbc 4a7a 5b3d fc84 d7bd
00000210: 0f82 c83d 6d1c f53d 2263 eabd 8dfe 96bc
00000220: f2a0 a43c 3a5d d8bd c3ed eebd 4273 273d
00000230: 1f24 dc3c 5772 5b3d c9a2 3b3e b531 60bd
00000240: f606 26ba 3129 003e 512a dabd 7f68 163e
00000250: 4130 103e d046 413e dd6a 183e 1fa4 31bd
00000260: 4d8d 433e 9b31 a7bc 9899 f23d 515b 413d
00000270: 02f9 3b3e 95a5 c3bd 7128 b83d e05d 1d3e
00000280: bb10 b13e 0f52 c13e f10c 49bd 165f 0cbe
00000290: d759 abbe bd90 c83e 63ee dd3e 215b 273d
000002a0: 0c9d dc3e 0274 083f 2187 1c3e 7156 7a3e
000002b0: 12af 5a3b 4b86 593e e761 27be 957e a23e
000002c0: 1ebf 403d 8390 9b3c 997c 32be 6f80 573e
000002d0: a22f 46be 6c78 c1be 5edc 87bc 22d4 bf3d
000002e0: e966 38be 469e 8f3e 35f7 8cbd c334 95be
000002f0: 69f3 28be c027 05be dcd2 1b3e 8ed3 e13e
00000300: 36ba 563d 67f4 b03d 9628 ee3d 9ce8 f3bb
00000310: c7da 5bbd c212 493e 457c b53d 27c8 78bd
00000320: 8597 68bd 5596 a6bc 980b 1fbd a38b ad3d
00000330: a876 993d 4c61 253d 7f06 4b3e 2e39 ea3d
00000340: 98f5 f83d 8285 5f3d 8c6d 4c3e e4dc cbbd
00000350: ec08 423e 2a08 2f3d 106c be3c 1442 4f3e
00000360: 956d 0a3d 7678 f2bd 44e9 2a3e 5405 a9bd
00000370: b9a2 26bd 2ba0 c5bd 92fc 083e 26fd 4ebc
00000380: 4f99 473e dd91 b93d 63ce 343e 2dfa eb3d
00000390: dc1e ad3c 3051 923d 2add 03be 495a 04be
000003a0: c883 c6bc e079 9ebe 70fc dd3c fe2c 87bd
000003b0: cce9 8b3c 8ca1 fc3c 098b 353e 0eb5 423d
000003c0: 79f8 393e dcd3 883d d4b2 63bd 7064 c6bd
000003d0: 8328 9d3c 8755 f83c bdfc 2b3d 5a87 58bd
000003e0: feb4 b6bd b404 11be a932 f13d fd35 e33d
000003f0: 80db 4ebd 478a 953c ace1 09bc 3f4c edbd

convs.1.lin_l.weight f4 [32, 32]
0.114161536 -0.14936545 -0.15566283 0.09578483 -0.0392538 -0.0039339215 -0.17175525 -0.09050503
-0.1317079 0.09649514 -0.020728722 0.042087585 0.14079826 0.07552044 -0.011992618 0.10696812
0.00189583 -0.14214286 0.10604893 0.06130211 -0.0428333 0.123443976 -0.017322227 0.08475573
0.10869007 -0.0711258 0.13247977 -0.032451615 -0.10625795 -0.028330103 0.037482515 0.004397899
-0.04753684 -0.003045788 -0.043590233 -0.07444166 -0.16536619 -0.15757062 0.052248612 0.024847884
0.014842732 0.015673406 -0.035945144 0.0629808 0.12675467 -0.04742484 -0.14478903 -0.052664742
-0.09918062 0.12691307 -0.054551452 0.05156171 0.13193329 -0.097416796 -0.15813094 0.06731289
0.08370506 0.02492141 0.156914 0.034895748 -0.12342647 0.15381794 0.14830466 -0.015348568
-0.089276396 0.15333787 0.168768 0.19504677 0.080571294 -0.46528715 -0.0908307 0.030899862
-0.056987986 -0.06288713 0.119701624 -0.11756871 -0.12610655 -0.02717924 -0.06383809 0.0028105706
-0.02603148 -0.15752314 -0.058487274 0.11869086 0.07820096 0.17706935 0.147875 0.12452953
-0.12912169 -0.10642555 -0.10302461 0.18556854 0.0524375 0.04780943 -0.18743229 0.07437695
0.11147869 0.07328339 0.0045347726 0.14394332 -0.007181738 0.1156797 -0.07395708 0.17184314
-0.0447386 0.1691895 -0.05512088 0.021748602 0.09477341 0.19751637 0.12393399 0.15609983
-0.14736626 0.08424338 -0.017609721 -0.039851267 0.066032715 0.103691585 0.06296821 0.08640541
0.17762648 0.061458502 -0.037999734 0.18714854 0.044175442 -0.10781705 0.117548205 -0.0102990335
0.026948778 -0.011110816 0.10884463 0.06833775 0.02468504 0.028217845 -0.09849123 -0.037504245
-0.072644636 0.070317425 -0.22873123 -0.15730369 -0.15952231 -0.18309315 0.14460678 0.065482415
0.083534025 -0.09753619 0.088554315 0.02976608 0.04777442 -0.12824616 0.34484398 -0.096709505
0.10252986 -0.075738065 -0.06535271 0.1539875 0.075179495 0.05829623 -0.1716834 0.0059413705
0.18339291 0.08960794 0.034266166 0.15176459 0.06920676 0.17956725 -0.010692745 0.13149324
-0.09847398 -0.09687916 0.02550674 -0.1243201 -0.03904906 -0.15671594 0.163122 0.049285315
-0.09822377 0.13084754 0.027991623 0.18343565 -0.1251468 0.10410051 0.06671395 -0.21442589
-0.11899386 -0.044963725 0.0060629207 -0.109621614 0.14814205 0.14204076 0.094674364 -0.11135937
0.21324725 0.017815115 0.041359533 0.10435945 0.21591781 0.20236616 0.17382209 0.010678599
-0.10761711 0.065850586 0.2029903 -0.08193985 -0.024289532 0.17083928 0.00344623 -0.10885901
0.18349859 0.19566217 0.18941353 0.20027661 -0.101812154 -0.05052675 0.10475507 -0.04348026
0.13131845 0.09381966 -0.17157558 0.04581406 -0.06097495 -0.0008209536 0.0071947626 0.027383877
-0.01930895 -0.0906552 0.06080719 -0.03965645 0.10092723 -0.07161186 -0.06451771 0.06766994
-0.19550894 0.014325569 -0.33586183 -0.1409981 0.012124501 0.1345554 -0.17324162 0.0008377327
-0.13261552 0.06606121 0.0025340053 -0.09596863 -0.2033703 0.13280994 -0.17212088 -0.047120932
-0.1174298 -0.048699453 -0.10626911 0.122921765 0.119880356 0.08577928 -6.9087628e-06 -0.04717703
00000000: 86cd e93d 42f3 18be 1466 1fbe d62a c43d
00000010: 98c8 20bd 20e8 80bb 9ce0 2fbe b35a b9bd
00000020: 70de 06be 3e9f c53d 48cf a9bc 0864 2c3d
00000030: 6b2d 103e 76aa 9a3d b07c 44bc 1a12 db3d
00000040: 807d f83a e68d 11be 2e30 d93d ec17 7b3d
00000050: f871 2fbd 32d0 fc3d 58e7 8dbc 6a94 ad3d
00000060: e698 de3d 67aa 91bd c7a8 073e fceb 04bd
00000070: c59d d9bd 8814 e8bc 4487 193d 401c 903b
00000080: fdb5 42bd d89b 47bb ac8b 32bd de74 98bd
00000090: c155 29be 315a 21be a402 563d ca8d cb3c
000000a0: ee2e 733c 8465 803c 373b 13bd 14fc 803d
000000b0: facb 013e 8d40 42bd 9343 14be fcb6 57bd
000000c0: 351f cbbd 80f5 013e 5871 5fbd 5f32 533d
000000d0: 8519 073e 7582 c7bd 14ed 21be 57db 893d
000000e0: 8f6d ab3d fc27 cc3c 10ae 203e d8ee 0e3d
000000f0: 04c7 fcbd 7382 1d3e 2ddd 173e 8f78 7bbc
00000100: 8bd6 b6bd 9a04 1d3e 85d1 2c3e 57ba 473e
00000110: 9002 a53d 1e3a eebe 7205 babd b521 fd3c
00000120: 3c6c 69bd f8ca 80bd 2026 f53d ddc7 f0bd
00000130: 1322 01be ffa6 debc 8bbd 82bd 8d31 383b
00000140: f83f d5bc bf4d 21be 5a90 6fbd 3214 f33d
00000150: d327 a03d ab51 353e 8b6c 173e 5709 ff3d
00000160: 7a38 04be a4f5 d9bd 91fe d2bd ae05 3e3e
00000170: b4c8 563d d2d3 433d 40ee 3fbe f152 983d
00000180: f04e e43d 9a15 963d 6e98 943b e165 133e
00000190: c954 ebbb 7be9 ec3d cf76 97bd a6f7 2f3e
000001a0: d23f 37bd 0340 2d3e 6fc6 61bd 202a b23c
000001b0: 9018 c23d bb41 4a3e 1bd1 fd3d a2d8 1f3e
000001c0: 2ee7 16be cb87 ac3d 4342 90bc 153b 23bd
000001d0: 293c 873d 415c d43d 7af5 803d 52f5 b03d
000001e0: b7e3 353e e9bb 7b3d 9ca5 1bbd dea3 3f3e
000001f0: 4ff1 343d 2fcf dcbd 1dbd f03d 47bd 28bc
00000200: afc3 dc3c 240a 36bc efe9 de3d aaf4 8b3d
00000210: 4838 ca3c 1c29 e73c c5b5 c9bd 0d9e 19bd
00000220: b6c6 94bd 9502 903d 8538 6abe 3814 21be
00000230: d159 23be c57c 3bbe cd13 143e a51b 863d
00000240: e313 ab3d 0ec1 c7bd f75b b53d ffd7 f33c
00000250: 1caf 433d f652 03be 648f b03e a20f c6bd
00000260: 2dfb d13d 8f1c 9bbd a4d7 85bd e6ae 1d3e
00000270: b5f7 993d 07c8 6e3d c6cd 2fbe d4af c23b
00000280: 5acb 3b3e 5e84 b73d ae5a 0c3d 2d68 1b3e
00000290: 46bc 8d3d 7ae0 373e a030 2fbc 2aa6 063e
000002a0: baac c9bd 9568 c6bd 83f3 d03c 899b febd
000002b0: e8f1 1fbd 257a 20be 7409 273e 66df 493d
000002c0: 8b29 c9bd e6fc 053e b04e e53c 8ed6 3b3e
000002d0: 7c26 00be a632 d53d 53a1 883d 7692 5bbe
000002e0: 0eb3 f3bd e22b 38bd 77ab c63b 4c81 e0bd
000002f0: 8db2 173e 2273 113e a2e4 c13d 6210 e4bd
00000300: 7d5d 5a3e 01f1 913c 9d68 293d 68ba d53d
00000310: 8f19 5d3e 1339 4f3e 6bfe 313e 4af5 2e3c
00000320: 5c66 dcbd acdc 863d b0dc 4f3e 14d0 a7bd
00000330: d7fa c6bc 7ef0 2e3e 25da 613b 79f1 debd
00000340: 0ee7 3b3e aa5b 483e 9ff5 413e 5015 4d3e
00000350: e482 d0bd 23f5 4ebd d389 d63d 5b18 32bd
00000360: 5878 063e 8624 c03d 82b1 2fbe 86a7 3b3d
00000370: dfc0 79bd 4335 57ba 0bc2 eb3b 2754 e03c
00000380: ce2d 9ebc 6fa9 b9bd f610 793d cd6e 22bd
00000390: f0b2 ce3d 3da9 92bd dc21 84bd 8a96 8a3d
000003a0: 7f33 48be cbb5 6a3c 15f6 abbe ce61 10be
000003b0: d8a5 463c e4c8 093e 4066 31be 4a9b 5b3a
000003c0: 5dcc 07be 1a4b 873d 8e11 263b 338b c4bd
000003d0: 4e40 50be 54ff 073e 7540 30be e101 41bd
000003e0: 097f f0bd 1479 47bd 9fa3 d9bd 68be fb3d
000003f0: d583 f53d 0cad af3d d2d1 e7b6 b43c 41bd

convs.1.lin_l.bias f4 [32]
-0.10991645 -0.1177319 0.19851387 -0.03930726 0.061787073 -0.047229726 -0.0072254827 0.067642756
-0.119296506 -0.0746834 -0.12547556 -0.063800365 -0.10415626 0.1765539 0.21719883 -0.12374724
-0.065444745 -0.007665857 -0.1259233 0.07668509 0.09122275 -0.029208932 -0.00628777 -0.060217388
0.06846794 0.22107701 -0.14763612 -0.069620416 -0.11628807 0.008229952 -0.06562846 0.15984383
00000000: e01b e1bd 6c1d f1bd 3847 4b3e a600 21bd
00000010: 7114 7d3d f573 41bd bec3 ecbb 4988 8a3d
00000020: ba51 f4bd 9cf3 98bd aa7c 00be c4a9 82bd
00000030: e14f d5bd 8cca 343e 5f69 5e3e 316f fdbd
00000040: e507 86bd df31 fbbb 0af2 00be 130d 9d3d
00000050: fed2 ba3d 9247 efbc a309 cebb 82a6 76bd
00000060: eb38 8c3d 0362 623e ec2d 17be 2695 8ebd
00000070: 7128 eebd ecd6 063c 3768 86bd 1aae 233e

convs.1.lin_r.weight f4 [32, 32]
-0.0015421063 -0.062236838 -0.14998907 -0.10045042 0.004289791 -0.13609776 0.009335816 0.048291102
-0.17323552 0.04973373 -0.16321163 -0.05403422 -0.17061263 -0.17053698 -0.13017273 -0.025876611
-0.098458536 -0.1694398 0.06720802 -0.13359523 0.039145514 0.017585918 0.033030882 0.08277376
0.14124863 0.14113693 -0.14237973 -0.120576315 -0.17030373 -0.1597411 -0.022171915 0.06063828
0.031632505 -0.04006033 -0.13773276 0.052543204 0.015251166 -0.09016973 0.1390162 0.026529238
0.0595665 -0.18252158 0.063425556 -0.17225575 0.15865348 0.15226734 -0.076906234 -0.120621115
-0.030045502 0.051166754 -0.085626505 -0.0013432374 -0.08873191 -0.10876655 -0.16686988 -0.17846806
0.06223149 -0.123204686 0.04894358 0.0063398425 -0.17692955 -0.112820685 -0.07089946 0.073045835
-0.14923969 0.15390675 0.08882415 -0.086443454 0.18488285 -0.037463054 -2.094517e-05 0.049890228
0.13340369 0.12545611 -0.034684554 0.15876588 0.17948607 0.16194318 -0.13617101 0.14560618
-0.09462672 -0.009370384 -0.05866699 -0.13800712 0.10893506 0.13704227 -0.042048525 0.08399559
0.103885554 -0.122541904 -0.174268 -0.09260222 0.0037952547 0.006121822 0.124682955 0.0077405293
0.051824167 -0.023880959 0.19861 -0.14106953 0.06791801 -0.39905456 -0.006167997 0.09298733
-0.10504114 0.13322015 0.16485134 0.05865913 -0.10938362 0.100778855 -0.1401065 0.040662706
-0.05841542 0.2029443 0.1709179 -0.06372457 0.0034437585 -0.045996584 0.19151485 0.045713767
0.15291227 -0.029021502 -0.3980395 -0.082018636 0.07185385 -0.06043106 -0.15925807 0.20280036
0.02126007 -0.11821438 0.032587443 -0.02142338 0.14940915 0.11871312 -0.045871194 -0.01825382
0.035644908 0.007737103 0.27557245 -0.15876237 0.09993824 -0.047273282 0.17154165 0.06216079
-0.092234865 -0.09606232 -0.06847699 -0.027455319 -0.18555886 0.14059691 -0.1646264 -0.009934715
-0.08228365 -0.0737986 0.051076088 0.027981164 0.056837004 -0.17914724 0.26358405 -0.08306336
0.1135209 -0.14525644 0.07474665 -0.047466163 0.06793254 0.07305593 -0.07820279 0.0414229
-0.07556699 0.08482234 0.11340085 -0.17990272 0.20516703 0.15219305 0.01846041 0.08711133
0.08082836 0.11340441 -0.06203647 -0.08628753 -0.06535552 0.09047716 -0.057949692 0.13804607
-0.15828606 0.060516026 0.021821594 -0.005610389 0.044684846 0.009389461 0.06674252 0.0059218383
0.10785006 0.07764733 0.18241806 0.09534415 0.22685097 -0.44094825 -0.024673417 0.16022235
-0.047395594 -0.0685861 0.08604783 -0.04524851 0.08516415 0.040937837 0.07624409 0.0154756205
0.20988762 0.1061108 -0.034182485 0.01578683 0.038319103 0.16529593 -0.021356633 0.055411473
0.003877553 0.065594584 -0.24360465 5.1447663e-05 -0.00472888 -0.044629127 0.16935913 0.16103451
0.06213824 0.12942214 -0.11949545 0.085823886 0.087368146 0.13446881 -0.08649854 0.004061589
-0.025036104 -0.19604471 -0.06187498 0.106385455 -0.09921806 0.13308513 -0.04471309 -0.20344977
-0.18169712 -0.1749123 0.037221655 0.12084878 -0.16341029 -0.1878386 -0.0350078 0.14435147
0.12065451 0.11060835 -0.021742554 -0.1189163 -0.120135106 -0.029744059 -0.1048055 -0.18776971
00000000: 8020 caba 0eec 7ebd bc96 19be f3b8 cdbd
00000010: 6091 8c3b 365d 0bbe 40f5 183c e4cc 453d
00000020: a764 31be 98b5 4b3d f320 27be fc52 5dbd
00000030: 14b5 2ebe 3fa1 2ebe 004c 05be 30fb d3bc
00000040: a1a4 c9bd a081 2dbe 5ca4 893d 30cd 08be
00000050: 0c57 203d 5810 903c 644b 073d 4a85 a93d
00000060: 7ba3 103e 3386 103e fecb 11be b7f0 f6bd
00000070: 1a64 2ebe 2c93 23be e0a1 b5bc d85f 783d
00000080: 1691 013d 4d16 24bd d109 0dbe 8b37 573d
00000090: 07e0 793c e8aa b8bd 435a 0e3e d853 d93c
000000a0: 01fc 733d f0e6 3abe 42e5 813d d063 30be
000000b0: 0f76 223e f8eb 1b3e 0481 9dbd 3408 f7bd
000000c0: fc21 f6bc 3b94 513d f35c afbd 910f b0ba
000000d0: 13b9 b5bd ffc0 debd f0df 2abe 55c0 36be
000000e0: 72e6 7e3d bd52 fcbd 1079 483d 74be cf3b
000000f0: 052d 35be 880e e7bd bc33 91bd 0e99 953d
00000100: 4ad2 18be bb99 1d3e 70e9 b53d 4409 b1bd
00000110: ee51 3d3e dc72 19bd 69b3 afb7 b259 4c3d
00000120: fa9a 083e 9177 003e 6411 0ebd 8693 223e
00000130: 32cb 373e 6fd4 253e 6a70 0bbe c919 153e
00000140: a7cb c1bd 3d86 19bc cc4c 70bd bd51 0dbe
00000150: 5819 df3d cf54 0c3e 133b 2cbd e105 ac3d
00000160: f3c1 d43d 40f7 fabd 5073 32be 3ca6 bdbd
00000170: cfb9 783b 9199 c83b c759 ff3d 44a4 fd3b
00000180: 9445 543d 00a2 c3bc 6b60 4b3e 8874 10be
00000190: 9918 8b3d e150 ccbe e91c cabb 2470 be3d
000001a0: cf1f d7bd dd6a 083e cace 283e 8e44 703d
000001b0: 8504 e0bd 2565 ce3d 1478 0fbe f08d 263d
000001c0: 0245 6fbd a1d0 4f3e 1a05 2f3e 0782 82bd
000001d0: aeb0 613b ea66 3cbd 781c 443e 5c3e 3b3d
000001e0: 0995 1c3e 80be edbc d5cb cbbe 63f9 a7bd
000001f0: 1c28 933d 8f86 77bd 8c14 23be e6aa 4f3e
00000200: 9929 ae3c 621a f2bd 697a 053d 1680 afbc
00000210: b6fe 183e dd1f f33d 6fe3 3bbd 0989 95bc
00000220: 6500 123d 8687 fd3b d517 8d3e 9a92 22be
00000230: 6cac cc3d a1a1 41bd 9da8 2f3e 509c 7e3d
00000240: a2e5 bcbd 52bc c4bd aa3d 8cbd fae9 e0bc
00000250: 2403 3ebe a3f8 0f3e d393 28be 37c5 22bc
00000260: 5584 a8bd b823 97bd 2935 513d c138 e53c
00000270: ebcd 683d 6072 37be 7df4 863e 1f1d aabd
00000280: a57d e83d 1bbe 14be c614 993d e16b 42bd
00000290: 3720 8b3d 599e 953d c928 a0bd 0fab 293d
000002a0: dec2 9abd 56b7 ad3d b43e e83d 6b38 38be
000002b0: 4e17 523e 7fd8 1b3e 493a 973c 6d67 b23d
000002c0: 5789 a53d 9240 e83d f419 7ebd 84b7 b0bd
000002d0: 1dd9 85bd 174c b93d a85c 6dbd f35b 0d3e
000002e0: be15 22be a7df 773d 33c3 b23c 5bd7 b7bb
000002f0: 7507 373d 41d6 193c 4db0 883d fb0b c23b
00000300: 7ee0 dc3d 9005 9f3d cdcb 3a3e cb43 c33d
00000310: 9f4b 683e f8c3 e1be e81f cabc 5411 243e
00000320: e221 42bd df76 8cbd d839 b03d 8056 39bd
00000330: 8b6a ae3d 6fae 273d dd25 9c3d 758d 7d3c
00000340: c8ec 563e 9e50 d93d ef02 0cbd 6253 813c
00000350: 7ef4 1c3d 5643 293e 1bf4 aebc 24f7 623d
00000360: 8b1e 7e3b 7456 863d 7f73 79be 82c9 5738
00000370: b8f4 9abb 08cd 36bd 7b6c 2d3e 3be6 243e
00000380: ab84 7e3d 3d87 043e 08ba f4bd 6fc4 af3d
00000390: 12ee b23d 31b2 093e 2626 b1bd 1417 853b
000003a0: 8418 cdbc f2bf 48be 9e70 7dbd 9ee0 d93d
000003b0: d732 cbbd 7847 083e 1325 37bd 2355 50be
000003c0: cf0e 3abe 361c 33be bc75 183d 917f f73d
000003d0: 0755 27be c358 40be 5764 0fbd dfd0 133e
000003e0: b619 f73d a186 e23d 711d b2bc 648a f3bd
000003f0: 6509 f6bd d0a9 f3bc 44a4 d6bd b446 40be

convs.2.lin_l.weight f4 [32, 32]
-0.0920606 0.12668955 -0.04476342 0.14175156 0.14860487 -0.10730466 -0.09012429 -0.035395123
0.15050326 0.11404901 0.019009845 0.20920688 0.07113634 -0.06454053 -0.048938304 0.028334774
-0.071702234 0.08383202 -0.14663956 -0.081076965 0.20438161 0.4621392 0.005780346 0.14351273
0.15800333 -0.09530698 0.09303635 0.07174217 -0.10001403 -0.102340296 0.13787177 0.17173705
0.13998921 -0.098924726 -0.03604291 0.17194416 0.065260224 0.055261865 0.18272455 -0.0030637237
-0.15914468 0.038348142 -0.07971137 0.007820128 0.33860675 0.11181124 0.1000958 0.18700978
0.3535736 -0.0082577625 -0.03894336 0.021588488 0.07432036 -0.16320005 -0.069963805 0.38617802
0.20745115 0.1194677 -0.15014027 0.20774795 0.042392313 0.114074446 0.30601376 0.14612143
0.049465135 0.0069432063 -0.16507757 0.0010635726 -0.13638853 -0.16424188 -0.14110853 0.03347525
-0.022873748 -0.09207143 -0.010239663 0.1454692 -0.030391248 0.11936524 0.05922931 -0.06204268
-0.14535859 -0.07890222 -0.13480157 -0.17820454 0.16161817 0.006918428 -0.077329434 0.027928557
-0.07425255 0.016832085 0.16932334 0.062785335 -0.041659642 0.091213584 -0.07346996 -0.012835608
0.1273682 0.11724049 0.103857875 -0.12135912 -0.15234962 -0.025385771 -0.0019075467 -0.16306841
0.108773865 0.12432299 0.20833972 0.17135789 0.008322938 -0.010724682 0.0031367752 -0.075571775
-0.17664932 0.14465041 0.03161326 0.09418043 -0.055649508 0.3003299 -0.066309646 -0.20880362
0.0066318447 -0.07549633 0.21593294 0.03220286 -0.15546758 0.05474342 0.021199118 -0.25946257
0.004220709 0.09562895 -0.055785026 -0.019814841 0.34758264 0.11200446 -0.04546452 -0.0023303642
-0.03423705 0.1104292 0.03433159 0.0070323814 -0.029559927 0.16493145 -0.14223062 0.07830772
0.014918674 -0.041226316 0.10646765 -0.46649447 0.09125445 0.02955344 -0.07456711 0.033571243
0.15393631 -0.1265566 0.24072823 0.026549824 -0.072645456 -0.06819203 -0.0983581 -0.105151735
0.018498361 -0.001027301 -0.015866531 0.0039056332 0.04846683 0.017591331 -0.023575941 -0.17156602
-0.087000325 0.13685396 -0.14359269 -0.07552819 0.13235486 -0.006711513 0.0735959 0.15413369
-0.09969761 -0.12171968 0.077404425 -0.06044701 -0.1417314 -0.0057321787 -0.17580959 -0.08645766
0.046017468 -0.024993502 0.1347626 -0.07887475 -0.17761585 -0.09008151 -0.101882994 0.13943683
-0.0035144389 -0.068423115 0.103732646 0.12818198 -0.172577 0.11357083 -0.010691109 -0.09606764
-0.17942674 -0.044815946 -0.056017827 0.1251389 -0.045744307 -0.037601802 -0.06874791 -0.0071403966
0.04669881 0.09939084 0.04953443 0.026473254 0.1072133 -0.081963174 -0.04012206 0.08553797
-0.016926862 0.010534837 0.25339577 -0.17671357 0.05508547 0.021293776 0.09259 0.12391315
-0.14625408 0.1570475 0.0512327 -0.111457914 0.080461554 -0.027780084 -0.045784626 0.04412981
-0.10391112 0.027755992 0.06716056 0.03908967 0.15957016 0.03752643 0.07614571 -0.030896865
-0.06666765 0.02164017 -0.050632756 -0.2378555 0.108238645 0.3286326 -0.009825488 -0.0006439146
-0.06353586 0.083515204 0.16293147 -0.04093324 0.120748 -0.123967655 0.16916642 0.04012298
00000000: 458a bcbd e8ba 013e d959 37bd 5227 113e
00000010: e02b 183e 8cc2 dbbd 1593 b8bd 7afa 10bd
00000020: 871d 1a3e 8792 e93d 89ba 9b3c 543a 563e
00000030: eeaf 913d d32d 84bd 8873 48bd 541e e83c
00000040: 9fd8 92bd 1fb0 ab3d ae28 16be ae0b a6bd
00000050: 6a49 513e 829d ec3e 0f69 bd3b 00f5 123e
00000060: a0cb 213e 4e30 c3bd d889 be3d 8fed 923d
00000070: 28d4 ccbd ca97 d1bd 422e 0d3e d6db 2f3e
00000080: 5559 0f3e 0c99 cabd bba1 13bd 2112 303e
00000090: 27a7 853d 445a 623d 251c 3b3e c1c8 48bb
000000a0: d3f6 22be f112 1d3d b73f a3bd ff1f 003c
000000b0: dd5d ad3e 4bfd e43d 07ff cc3d 7e7f 3f3e
000000c0: 9907 b53e 914b 07bc 1383 1fbd 57da b03c
000000d0: 4635 983d ea1d 27be 2f49 8fbd 20b9 c53e
000000e0: 136e 543e 7bab f43d 5fbe 19be e1bb 543e
000000f0: 90a3 2d3d dd9f e93d d6ad 9c3e dba0 153e
00000100: f49b 4a3d d683 e33b 180a 29be 9367 8b3a
00000110: 6fa9 0bbe 062f 28be c17e 10be 581d 093d
00000120: ba61 bbbc f28f bcbd 42c4 27bc e1f5 143e
00000130: 11f7 f8bc c375 f43d 6f9a 723d 7720 7ebd
00000140: e2d8 14be 7d97 a1bd 6c09 0abe 407b 36be
00000150: 3c7f 253e fbb3 e23b e55e 9ebd 6eca e43c
00000160: b911 98bd 71e3 893c 1963 2d3e 9995 803d
00000170: 4da3 2abd 30ce ba3d 6b77 96bd 714c 52bc
00000180: cf6c 023e c81b f03d 70b3 d43d 218b f8bd
00000190: 8a01 1cbe d2f5 cfbc a506 faba 68fb 26be
000001a0: d5c4 de3d 0d9d fe3d 0257 553e 7178 2f3e
000001b0: ef5c 083c 94b6 2fbc 5b92 4d3b 60c5 9abd
000001c0: 8fe3 34be 3d1f 143e e87c 013d abe1 c03d
000001d0: bdf0 63bd d7c4 993e 5acd 87bd 9ed0 55be
000001e0: f24f d93b d29d 9abd 861d 5d3e 25e7 033d
000001f0: e532 1fbe a33a 603d c6a9 ad3c 47d8 84be
00000200: e04d 8a3b 1cd9 c33d d77e 64bd bc52 a2bc
00000210: 5af6 b13e 9862 e53d 0139 3abd 06b9 18bb
00000220: 263c 0cbd b428 e23d 489f 0c3d e46f e63b
00000230: a927 f2bc cae3 283e e7a4 11be cc5f a03d
00000240: 746d 743c eddc 28bd b60b da3d 5dd8 eebe
00000250: 9de3 ba3d 0e1a f23c a4b6 98bd 0082 093d
00000260: 7ba1 1d3e 0e98 01be 7681 763e 047f d93c
00000270: 24c7 94bd 43a8 8bbd f96f c9bd cb59 d7bd
00000280: e089 973c 80a6 86ba 87fa 81bc a7f5 7f3b
00000290: 2885 463d b21b 903c 5522 c1bc 01af 2fbe
000002a0: 3a2d b2bd 7223 0c3e f609 13be 86ae 9abd
000002b0: 0888 073e 40ec dbbb 72b9 963d 39d5 1d3e
000002c0: 432e ccbd 2b48 f9bd 3686 9e3d 4997 77bd
000002d0: 0922 11be 00d5 bbbb 6e07 34be b710 b1bd
000002e0: d07c 3c3d 2cbf ccbc 35ff 093e 1689 a1bd
000002f0: eee0 35be a87c b8bd 08a8 d0bd 87c8 0e3e
00000300: 8052 66bb 6b21 8cbd c871 d43d 2342 033e
00000310: 06b8 30be d397 e83d c329 2fbc 1cbf c4bd
00000320: a5bb 37be ed90 37bd f372 65bd 6924 003e
00000330: 625e 3bbd 5904 1abd b4cb 8cbd fdf9 e9bb
00000340: 4047 3f3d 6d8d cb3d 9de4 4a3d 70de d83c
00000350: a692 db3d 4fdc a7bd 0757 24bd 882e af3d
00000360: 34aa 8abc 4f9a 2c3c 17bd 813e 67f4 34be
00000370: 4da1 613d 4970 ae3c d39f bd3d 2dc6 fd3d
00000380: a1c3 15be 0fd1 203e 61d9 513d 0c44 e4bd
00000390: 07c9 a43d 0f93 e3bc a988 3bbd 76c1 343d
000003a0: 5acf d4bd 8960 e33c 7a8b 893d 7d1c 203d
000003b0: 5c66 233e 50b5 193d 48f2 9b3d 6c1b fdbc
000003c0: 0d89 88bd ba46 b13c 4b64 4fbd 6490 73be
000003d0: 39ac dd3d 8842 a83e 15fb 20bc 61cc 28ba
000003e0: 171f 82bd 050a ab3d 82d7 263e 9da9 27bd
000003f0: ba4a f73d c1e2 fdbd f639 2d3e fe57 243d

convs.2.lin_l.bias f4 [32]
0.21331964 -0.13138784 -0.045438033 0.09554172 0.07102346 -0.16651687 0.0019047987 0.010216488
0.14468677 0.14343943 -0.0006356886 -0.03032114 0.37230733 -0.068271704 0.12852532 0.09001325
-0.21655977 -0.017219529 0.07902836 -0.0468289 0.058598313 -0.0666788 0.05686227 0.009908083
0.08221136 0.03240022 0.10311222 -0.016876264 0.10199831 0.0034450444 -0.044646785 0.14175355
00000000: 7770 5a3e 898a 06be 3b1d 3abd 61ab c33d
00000010: bf74 913d 6683 2abe 70aa f93a 0e63 273c
00000020: c528 143e c9e1 123e 57a4 26ba 0a64 f8bc
00000030: 119f be3e 09d2 8bbd 249c 033e de58 b83d
00000040: d8c1 5dbe f80f 8dbc 9fd9 a13d a9cf 3fbd
00000050: c904 703d e58e 88bd 69e8 683d 8355 223c
00000060: 6e5e a83d 18b6 043d 802c d33d 1740 8abc
00000070: 7de4 d03d 41c6 613b 8cdf 36bd d827 113e
