models/GraphSAGE/GraphSAGE_best_random.pt (torch, 37736 bytes, 13 tensors)

conv1.lin_l.weight f4 [32, 27]
0	0x3dc6530e	0.0968381
1	0x3d2c33a8	0.04204145
2	0x3baedda9	0.0053364825
3	0xbd88dceb	-0.06682762
4	0xbdcb8b17	-0.09938639
5	0x3e17978b	0.14803903
6	0x3c8b5fa7	0.017013384
7	0xbdead529	-0.11466438
8	0xbe11bcbb	-0.14232151
9	0xbdc61e85	-0.0967379
10	0xbdf630ab	-0.120210014
11	0x3caa8701	0.020816328
12	0xbd063439	-0.032764647
13	0xbd78d5d6	-0.060750805
14	0x3e3036a9	0.17208351
15	0x3dca8ac2	0.09889747
16	0x3ea8ea36	0.3299119
17	0x3da04093	0.078248166
18	0x3dc74bdb	0.09731265
19	0xbdd1b803	-0.102401756
20	0x3e924454	0.28567755
21	0x3e6b9c08	0.2300874
22	0x3e79a608	0.24379742
23	0x3d7d5d17	0.061856356
24	0x3c4dd6aa	0.012563387
25	0xbd2e846e	-0.042606764
26	0xbc9ad178	-0.01889871
27	0x3ca02429	0.019548493
28	0xbd9fde0a	-0.078060225
29	0xbd5aefd6	-0.05345138
30	0x3bac3d37	0.005256321
31	0x3d1f3983	0.038873207
32	0x3d88dc1a	0.06682606
33	0x3e996fe2	0.29968172
34	0x3e683bc9	0.22679056
35	0x3e131e61	0.14367057
36	0xbd7479ac	-0.059686348
37	0xbe11ad30	-0.14226222
38	0xbdc82356	-0.09772365
39	0x3e837af0	0.2567973
40	0x3e883bd3	0.26608142
41	0xbdb9c099	-0.09069938
42	0x3e5c0639	0.21486749
43	0x3e19130a	0.14948669
44	0x3adcb79f	0.0016839391
45	0x3e80fbdd	0.25192156
46	0x3e1dad0e	0.15398046
47	0xbadfc996	-0.0017073627
48	0x3d89c12a	0.06726296
49	0x3dc6c143	0.097048305
50	0x3e76861a	0.24074593
51	0x3e83fb02	0.2577744
52	0x3df50a6b	0.11964878
53	0x3d592ca8	0.053021103
54	0xbe45aefa	-0.1930503
55	0x3d3a7f3f	0.045531508
56	0x3d91086b	0.07081684
57	0x3e04bd31	0.12962796
58	0x3e4d7615	0.20064576
59	0x3d537707	0.051627185
60	0x3d407f6c	0.04699652
61	0xbd86c915	-0.06581322
62	0xbe87c1d2	-0.2651506
63	0xbe31bb80	-0.17356682
64	0xbe2af9fb	-0.16696922
65	0xbe0eceb7	-0.13946043
66	0x3d04cbb1	0.032420818
67	0xbd83b17d	-0.064303376
68	0xbe81f3bb	-0.25381264
69	0x3c1a2d7e	0.00941026
70	0xbc8d775f	-0.017268835
71	0xbe2f4b1c	-0.17118496
72	0xbcc0e2a0	-0.023545563
73	0xbdd57265	-0.1042221
74	0xbe3016c3	-0.17196183
75	0xbe71a33a	-0.23597422
76	0xbd8a765c	-0.067608565
77	0xbe03afbc	-0.12860006
78	0xbd2663c4	-0.040622488
79	0x3e331b5c	0.17490906
80	0x3cde27dc	0.027118616
81	0xbdf0894e	-0.11744939
82	0xbddb4953	-0.10707345
83	0x3e5bd981	0.2146969
84	0x3c07b26b	0.008282284
85	0xbdde7806	-0.108627364
86	0xbd255e00	-0.04037285
87	0x3a9d846e	0.0012017617
88	0x3e4e2d50	0.20134473
89	0xbd3de147	-0.04635742
90	0xbd9b0477	-0.07569211
91	0x3e1f0676	0.15529808
92	0xbda84694	-0.08216587
93	0x3db74eb3	0.089505576
94	0xbe4fcd28	-0.20293105
95	0xbdc8e601	-0.09809495
96	0xbd888465	-0.06665877
97	0x3e6687ab	0.2251269
98	0xbcb11818	-0.021617934
99	0x3d58e22b	0.052950066
100	0x3dc46472	0.09589471
101	0xbdbfbe71	-0.09362496
102	0xbe56e3a5	-0.20985277
103	0xbccef495	-0.02526311
104	0x3d56951f	0.052388307
105	0xbda75ac4	-0.08171609
106	0x3e6cec0d	0.23136921
107	0xbe3d68e2	-0.18497041
108	0x3b57f98d	0.003295514
109	0xbdc42437	-0.0957722
110	0x3e386a7a	0.18009368
111	0x3e5c53e0	0.21516371
112	0x3e39021a	0.18067208
113	0xbe1951be	-0.14972588
114	0x3e4349c5	0.1907111
115	0x3d8b8020	0.06811547
116	0xbe3af88b	-0.18258874
117	0xbe779d03	-0.24180989
118	0xbe2455ae	-0.16048309
119	0xbe1e4e07	-0.15459453
120	0xbd07d7bf	-0.033164736
121	0xbda0f3c7	-0.07858997
122	0xbcb7a466	-0.022417258
123	0xbe5782f0	-0.21046042
124	0x3e1ad58b	0.15120523
125	0xbdddd78d	-0.10832129
126	0xbdbeb9d8	-0.09312791
127	0xbc122848	-0.008920737
128	0xbcf60209	-0.030030267
129	0x3e4dc977	0.20096384
130	0xbc8c7343	-0.017144805
131	0xbd8b93bb	-0.06815287
132	0xbdbbada0	-0.09163976
133	0x3e10433e	0.14088151
134	0xbd35e1f3	-0.044404935
135	0xb9fe6794	-0.00048523827
136	0xbd6c0ade	-0.05762755
137	0x3e1fc9f0	0.15604377
138	0xbdf20350	-0.11817038
139	0xbdacde56	-0.08440845
140	0xbd514f43	-0.05110098
141	0x3e78ba64	0.24289852
142	0x3e84196b	0.25800642
143	0xbe08865c	-0.13332504
144	0xbd41da18	-0.04732713
145	0xbdbc56ba	-0.09196229
146	0xba93a501	-0.0011264385
147	0x3e1a9833	0.15097122
148	0x3d3e3302	0.046435364
149	0xbd6f3b65	-0.058406252
150	0xbbf20b87	-0.007386628
151	0x3e99e2cf	0.30055854
152	0xbe0ff695	-0.14058907
153	0xbd72678a	-0.059180774
154	0xbe2036ab	-0.15645854
155	0xbc052e55	-0.008128722
156	0x3d490ae9	0.04908267
157	0x3e2dd667	0.16976319
158	0x3d37e7e5	0.044898886
159	0x3d7f22a0	0.06228888
160	0x3e686d8b	0.22698037
161	0x3d055a5b	0.032556873
162	0xbc73528d	-0.014851225
163	0x3e1ce5ea	0.1532208
164	0xbe3d43c5	-0.18482883
165	0xbd840139	-0.06445546
166	0x3e096ff8	0.13421619
167	0x3e694812	0.22781399
168	0x3dcb207a	0.09918304
169	0x3e740cbb	0.23832981
170	0x3e758544	0.23976618
171	0x3e20ed9e	0.15715644
172	0x3e65090a	0.2236673
173	0x3e7a634e	0.24451944
174	0xbd84d072	-0.0648507
175	0x3e88df18	0.26732707
176	0x3d9a21dd	0.0752599
177	0x3e5bf27b	0.21479218
178	0x3ddb6945	0.10713438
179	0x3e07e431	0.13270642
180	0x3dc5915f	0.09646868
181	0xbdaf46be	-0.08558415
182	0x3e2adb6b	0.16685264
183	0x3d31dc26	0.04342284
184	0x3e7e1b0e	0.24815008
185	0x3e05d98f	0.13071273
186	0x3e68771e	0.2270169
187	0x3ea3ecbb	0.3201655
188	0x3afc81ea	0.0019264792
189	0x3d036de6	0.03208723
190	0xbc06aad0	-0.008219436
191	0x3d9c2bee	0.076255664
192	0xbce4edd0	-0.02794543
193	0x3e3baa47	0.18326674
194	0xbbffbe12	-0.0078046406
195	0xbe959b01	-0.2921982
196	0xbe550e71	-0.2080629
197	0xbd73a55c	-0.05948387
198	0xbe888cb0	-0.26669836
199	0xbe89f284	-0.26942837
200	0xbe75f20a	-0.24018112
201	0xbe9ca53e	-0.3059482
202	0xbe888936	-0.26667184
203	0xbe965151	-0.29358914
204	0xbe715ce1	-0.23570587
205	0x38d72c0c	0.00010260203
206	0xbe1f4d31	-0.1555679
207	0xbd9c83a2	-0.076422945
208	0xbe60d07b	-0.21954529
209	0xbc17b425	-0.009259258
210	0xbdd55f59	-0.10418577
211	0xbe80d32e	-0.25161117
212	0xbe780dbe	-0.24223992
213	0xbea0e840	-0.31427193
214	0xbe024374	-0.12721044
215	0x3d746b49	0.059672628
216	0xbe231dc1	-0.15929319
217	0xbbec6dc6	-0.0072152345
218	0x3d1c991a	0.038231947
219	0x3e7cf3b1	0.24702336
220	0x3e1973bd	0.14985557
221	0xbe213a84	-0.15744978
222	0xbc39d8dc	-0.011343207
223	0x3e62f799	0.22164764
224	0x3d6eea8a	0.058329143
225	0x3e3e8f22	0.18609288
226	0x3d77113f	0.06031918
227	0x3d447d1c	0.047970876
228	0x3c9262c2	0.017869357
229	0x3df328ae	0.118729934
230	0x3c9a72d9	0.018853592
231	0x3e6f61f5	0.23377211
232	0x3e1e07be	0.15432641
233	0x3dd47793	0.103743695
234	0x3e442640	0.19155216
235	0x3dffa34c	0.12482318
236	0x3d736bb9	0.059428904
237	0x3e7a6c6e	0.24455425
238	0xbdf89c6f	-0.12139212
239	0xbcddcc29	-0.02707489
240	0x3e3f7494	0.18696815
241	0xbd4bc684	-0.049749866
242	0x3e26a144	0.16272455
243	0x3d1a1b5b	0.037623744
244	0xbddec58f	-0.10877525
245	0x3d122520	0.035679936
246	0x3e157b31	0.14597775
247	0xbe57f152	-0.2108815
248	0xbd7fc3e7	-0.062442686
249	0x3e4bd07f	0.19903754
250	0x3d132707	0.03592589
251	0xb9f9ddd1	-0.00047658247
252	0xbe0b5b6f	-0.13609098
253	0xbdd06858	-0.10176152
254	0x3e2dec2a	0.1698462
255	0xbd36a00b	-0.044586223

conv1.lin_l.bias f4 [32]
0	0x3e4a862c	0.19777745
1	0x3e518cc5	0.20463856
2	0x3d4ffd00	0.05077839
3	0xbd88d382	-0.06680967
4	0xbb0cd1f2	-0.0021487442
5	0x3bc53464	0.0060182083
6	0x3e6cff40	0.23144245
7	0xbe69c282	-0.22828105
8	0xbdbb01e5	-0.09131221
9	0x3c72a4f9	0.01480984
10	0xbe620463	-0.22071986
11	0xbc66a6a0	-0.014077812
12	0x3d994a58	0.07484883
13	0x3e0ab008	0.13543713
14	0xbd979952	-0.074022904
15	0xbe417d52	-0.18895462
16	0x3cd5438d	0.026033187
17	0xbe381941	-0.17978384
18	0x3e64ade8	0.22331965
19	0x3de97762	0.113997236
20	0xbe624464	-0.22096401
21	0xbe00846e	-0.12550518
22	0x3d3e1d0e	0.046414427
23	0xbd1c4166	-0.038148306
24	0xbc7ebb56	-0.015547594
25	0x3e2f980f	0.1714785
26	0x3e235688	0.15950978
27	0x3e02cf85	0.12774475
28	0x3e21c3bc	0.15797323
29	0xbe1d011d	-0.15332456
30	0x3e040308	0.12891781
31	0x3e286003	0.16442876

conv1.lin_r.weight f4 [32, 27]
0	0x3e52b1f4	0.20575696
1	0x3e1e4fea	0.15460172
2	0x3c46661b	0.012109305
3	0xbdec474b	-0.115370356
4	0x3d3e5b4b	0.046473783
5	0x3de2de7a	0.1107759
6	0xbd24a96a	-0.04020063
7	0xbc554b45	-0.013018434
8	0xbdc171ca	-0.09445532
9	0x3e5adc0a	0.21373
10	0xbd42fcdf	-0.047604438
11	0x3dbfb3b4	0.093604475
12	0x3e38df3f	0.18053912
13	0x3e4f1d14	0.20225936
14	0x3d1518f9	0.03640077
15	0x3d32fa61	0.04369581
16	0x3d220de7	0.03956404
17	0xbd34fe7b	-0.044188004
18	0x3ded4bb9	0.115867086
19	0x3d93ac9b	0.07210656
20	0x3e895898	0.26825404
21	0x3d9917a5	0.07475213
22	0x3e302d7d	0.17204852
23	0xb9f7dfe2	-0.00047278317
24	0x3e84947f	0.25894544
25	0x3e6eaef1	0.23308922
26	0x3e59c98e	0.21268293
27	0x3e1095a7	0.14119588
28	0x3e68273f	0.22671221
29	0xbe2a0c5e	-0.1660628
30	0xbd1129ec	-0.03544037
31	0xbe0612be	-0.13093087
32	0xbb6f6183	-0.0036526627
33	0x3c299596	0.0103506055
34	0x3c0a74db	0.008450712
35	0x3d8fa0aa	0.07013066
36	0x3e168760	0.14700079
37	0x3e65342a	0.2238318
38	0x3e82af24	0.25524247
39	0x3e8a4241	0.27003673
40	0x3e630a9c	0.22172016
41	0xbe143a5a	-0.14475384
42	0x3e8649a6	0.26228064
43	0x3d336e58	0.043806404
44	0x3e4fb3c5	0.2028342
45	0x3e610117	0.21973072
46	0x3dee28a8	0.11628848
47	0x3ea689fa	0.32527143
48	0x3dd80edb	0.105497085
49	0x3e445adf	0.1917529
50	0x3c70f063	0.01470575
51	0xbdd7efab	-0.1054376
52	0x3dbca39a	0.09210892
53	0x3e851dba	0.25999242
54	0x3ceb654d	0.028734827
55	0x3deed374	0.11661425
56	0x3ccd058b	0.025027057
57	0x3da9627b	0.08270737
58	0x3cdfb973	0.027310109
59	0xbd4f45ae	-0.05060356
60	0xbe3935a8	-0.18086874
61	0x3e53d4f1	0.206867
62	0xbc808d11	-0.015692266
63	0x3cc97cbb	0.024595609
64	0xbe08eecc	-0.13372344
65	0xbdd8f68b	-0.10593899
66	0xbde7cfc1	-0.11318923
67	0xbd8c62f1	-0.06854809
68	0xbe8d3f1c	-0.2758721
69	0xbe286fde	-0.16448924
70	0x3e5186c5	0.20461567
71	0xbcdde720	-0.027087748
72	0xbe659913	-0.22421674
73	0xbe5e1f59	-0.21691646
74	0xbe2bdf8a	-0.16784492
75	0xbe0e9a5d	-0.13926072
76	0xbca72584	-0.020403631
77	0x3bd1bc09	0.0064005894
78	0x3cfd5d11	0.030928167
79	0x3df8d954	0.12150827
80	0xbe19972e	-0.14999077
81	0xbd2adb4d	-0.041713048
82	0xbe231fb4	-0.15930063
83	0xbd9c4674	-0.07630625
84	0xbda2cdf3	-0.07949438
85	0x3c8f7636	0.017512422
86	0xbe005a6b	-0.12534492
87	0x3d932b43	0.07185986
88	0x3e5fe33f	0.21864031
89	0x3e1f583b	0.15561001
90	0xbdc5130a	-0.09622772
91	0xbe473e9a	-0.19457474
92	0xbe8a6a0d	-0.27034035
93	0xbd806c73	-0.06270685
94	0xbda5c12c	-0.08093485
95	0xbd53e29f	-0.051729795
96	0xbe1d415c	-0.15356964
97	0x3e55e20f	0.20887016
98	0xbe33a0b7	-0.17541777
99	0xbd6d6130	-0.057954013
100	0x3cc636bb	0.02419602
101	0xbd264c72	-0.040600248
102	0x3c3abd7b	0.011397715
103	0xbdf9509d	-0.12173579
104	0x3d2f76fa	0.042838074
105	0xbdfc2d05	-0.12313274
106	0x3e15670e	0.14590093
107	0xbdbd9d91	-0.09258569
108	0x3dfc1b75	0.123099245
109	0x3de97d3d	0.114008404
110	0x3d8a0078	0.06738371
111	0xbbaf264e	-0.0053451424
112	0xbe0b65a7	-0.13612996
113	0xbc25d443	-0.010121408
114	0xbdc2910b	-0.09500321
115	0x3e0cb9e3	0.13742785
116	0x3dd39bc1	0.10332442
117	0xbe80176d	-0.25017872
118	0xbe39b584	-0.18135649
119	0xbdfad82c	-0.12248263
120	0x3e081e9e	0.1329293
121	0x3cd2f0fd	0.025749678
122	0x397c2bd5	0.00024048921
123	0x3e0d097e	0.13773152
124	0xbde36c8b	-0.11104687
125	0x3b43c0a1	0.0029869454
126	0xbe13fa9b	-0.14451067
127	0xbce871c6	-0.028374564
128	0x3e1a9702	0.15096667
129	0xbda5dd86	-0.08098893
130	0xbdd1150a	-0.10209091
131	0xbdc3d8d4	-0.09562841
132	0x3e1d2b49	0.15348543
133	0xbd8a0a57	-0.067402534
134	0x3cc320b2	0.023819301
135	0xbe67e79a	-0.22646943
136	0xbe0329d6	-0.12808928
137	0x3dba54fa	0.09098239
138	0x3ca5ce62	0.020240013
139	0xbd72ff8b	-0.059325736
140	0x3d9b0d53	0.07570901
141	0x3d541f2e	0.051787548
142	0x3d506f1d	0.050887216
143	0x3d03cc5b	0.03217731
144	0x3def8c60	0.11696696
145	0x3dc0ee81	0.09420491
146	0x3c92363c	0.017848127
147	0x3d7aebd0	0.061260045
148	0x3e7d5e7a	0.24743071
149	0xbd10a2fe	-0.03531169
150	0xbe4a2fe8	-0.19744837
151	0x3e98243b	0.29715142
152	0x3e0ef4a4	0.1396051
153	0x3e68f36b	0.22749107
154	0xbe44f089	-0.19232382
155	0x3e4091d3	0.18805628
156	0x3e2f0a8b	0.17093866
157	0x3c3af669	0.011411288
158	0x3be4656a	0.0069700973
159	0x3e07b5cc	0.13252944
160	0x3df85489	0.12125499
161	0x3ded5304	0.115880996
162	0xbe32c8e9	-0.17459454
163	0xbe2fbfab	-0.1716296
164	0xbdd57033	-0.10421791
165	0x3e97f80b	0.2968143
166	0x3e1830ac	0.14862317
167	0x3e7c283a	0.2462472
168	0x3eaeee9c	0.3416642
169	0x3dfb63d0	0.12274897
170	0x3dc41c87	0.09575754
171	0xbdaa64f3	-0.08320036
172	0x3e1695e0	0.1470561
173	0x3dcf613a	0.10125966
174	0x3d88879e	0.06666492
175	0x3e5eafb7	0.21746717
176	0x3e7f23c6	0.2491599
177	0x3e973e3b	0.29539666
178	0x3e9b2142	0.3029881
179	0x3e4e109d	0.20123525
180	0x3e8a7450	0.27041864
181	0xbcd6b402	-0.026208881
182	0x3df22221	0.11822916
183	0x3e7a0684	0.24416548
184	0xbd69eca7	-0.057110455
185	0xbd36a39c	-0.044589624
186	0x3e539e34	0.20665818
187	0x3d40090b	0.046883624
188	0x3e8a0e6a	0.26964122
189	0xbcb80d1f	-0.022467194
190	0xbd035118	-0.03205976
191	0x3c49619b	0.012291337
192	0x3d40a137	0.047028746
193	0xbd52df54	-0.051482514
194	0xb941ff99	-0.00018501132
195	0x3d97082f	0.07374608
196	0xbe5d0436	-0.21583638
197	0xbd68c1bd	-0.05682539
198	0xbe8bb845	-0.27289024
199	0xbea73205	-0.3265535
200	0xbe86304d	-0.26208726
201	0x3d09f3f5	0.03367992
202	0xbe56d06e	-0.20977947
203	0xbe5b9c9a	-0.21446458
204	0xbe75fe5e	-0.24022815
205	0xbe2c8854	-0.1684888
206	0xbe86403f	-0.2622089
207	0x3c14d691	0.00908436
208	0xbd7ce873	-0.06174512
209	0xbe1f7664	-0.15572506
210	0xbe9dcf45	-0.30822197
211	0xbe6f97ac	-0.23397702
212	0xbe3564b4	-0.17714196
213	0xbdbd57a9	-0.092452355
214	0x3d04a2a2	0.03238166
215	0x3b3ed8db	0.0029120955
216	0xbe391339	-0.18073739
217	0xbdfe2126	-0.12408666
218	0xbb74cdb3	-0.0037354052
219	0x3e3466fa	0.17617407
220	0x3ccf8cb0	0.02533564
221	0x3da25b0c	0.07927522
222	0x3e35240f	0.17689537
223	0x3d423a50	0.047418892
224	0x3dc7c343	0.0975404
225	0x3d1c5f28	0.038176686
226	0x3ccfc5b9	0.025362836
227	0xbd85775f	-0.06516909
228	0x3ded6440	0.11591387
229	0xbe0677ae	-0.13131592
230	0x3e398286	0.18116197
231	0xbcd74aa1	-0.026280703
232	0x3e930fbb	0.2872294
233	0x3dcf7b15	0.10130898
234	0xbda31bf0	-0.07964313
235	0x3d01bd58	0.031674713
236	0x3e8217ba	0.25408727
237	0xbc6ed190	-0.014576331
238	0x3e19fef5	0.15038665
239	0x3e315494	0.1731742
240	0x3e44009e	0.1914086
241	0x3db4f308	0.08835417
242	0x3e917a7c	0.2841376
243	0x3e4eaded	0.20183535
244	0xbdaa6cc8	-0.083215296
245	0xbd758baf	-0.059947666
246	0xbe373a9e	-0.17893454
247	0xbe333da4	-0.17503983
248	0x3c89dd85	0.016829262
249	0x3e90a0d0	0.2824769
250	0x3e772d65	0.2413841
251	0x3e6b5679	0.22982205
252	0xbe1527d3	-0.14565973
253	0x3e2821d9	0.16419162
254	0x3e3b5881	0.1829548
255	0x3d0d4c66	0.034496687

convs.0.lin_l.weight f4 [32, 32]
0	0xbd6bee89	-0.05760053
1	0x3e63238d	0.2218153
2	0x3dfe5fd7	0.12420624
3	0xbdc10060	-0.094239
4	0x3de58f3c	0.112089604
5	0x3c9695d4	0.01838199
6	0x3de2725c	0.110569686
7	0x3d180ab3	0.03711958
8	0xbe0791cc	-0.13239211
9	0xbdb0693a	-0.086138204
10	0x3c8643ac	0.01638969
11	0x3e210462	0.15724328
12	0x3d44ecbd	0.048077334
13	0xbd088ba9	-0.033336315
14	0x3cdc2ff5	0.026878336
15	0x3da04b17	0.07826822
16	0x3dfeef56	0.124479935
17	0x3e0ce190	0.1375792
18	0x3e5487b9	0.20754899
19	0x3dbecf20	0.0931685
20	0x3c4f66fc	0.012658831
21	0xbde79e49	-0.113094874
22	0x3e3cb0ed	0.18426867
23	0xbd5f6827	-0.054542687
24	0x3e26d9a3	0.1629396
25	0x3d8a4b3a	0.067526296
26	0x3de3886b	0.11110004
27	0x3dc3a6b1	0.09553278
28	0xbd14a90a	-0.03629402
29	0x3c927e66	0.017882537
30	0x3e4b9bbe	0.1988363
31	0xbdd381cd	-0.10327492
32	0xbd11e771	-0.03562111
33	0xbdf9c806	-0.121963546
34	0xbdd43fb3	-0.10363712
35	0xbdba5ca5	-0.09099702
36	0x3d5f43e4	0.054508105
37	0xbe0c7486	-0.13716325
38	0xbe45722a	-0.19281831
39	0xbdb1ca7d	-0.086812
40	0xbe626538	-0.22108924
41	0x3d7d2a60	0.06180799
42	0x3baf5c25	0.0053515607
43	0xbe6c02e6	-0.2304798
44	0xbcbcf52e	-0.02306613
45	0xbdc0321e	-0.09384559
46	0xbdf168cd	-0.11787567
47	0xbe0c649d	-0.13710256
48	0xbe077110	-0.13226724
49	0xbdb21e1c	-0.08697149
50	0xbd067be0	-0.03283298
51	0xbd7c6a4f	-0.06162482
52	0xbe593ee5	-0.21215399
53	0x3dc672da	0.09689875
54	0x3c3b3457	0.011426053
55	0xbe64b0ca	-0.22333065
56	0x3da0f8c2	0.07859947
57	0xbe455814	-0.1927188
58	0xbe12057f	-0.14259909
59	0x3d398994	0.04529722
60	0xbe0cd614	-0.1375354
61	0x3d0db789	0.03459886
62	0xbe432c68	-0.19059908
63	0xbe54563b	-0.2073602
64	0xbd6dd6a7	-0.058066037
65	0x3dd042a3	0.1016896
66	0x3dc54fc1	0.096343525
67	0xbd1c7014	-0.038192824
68	0x3da46285	0.080266036
69	0xbcb9bb4f	-0.022672324
70	0xbc31cbb7	-0.010851792
71	0x3d2d90ff	0.042374607
72	0x3e02ddf7	0.12779985
73	0x3da551ed	0.08072267
74	0x3db5c515	0.08875481
75	0xbd3046ff	-0.043036457
76	0xbddbfe45	-0.107418574
77	0x3d4c64d0	0.04990083
78	0x3c1c39b9	0.0095352465
79	0xbdbd54e9	-0.09244711
80	0x3da83db1	0.08214892
81	0x3e1a23a0	0.15052652
82	0x3e2ae036	0.16687092
83	0x3d2e67aa	0.04257933
84	0x3dfb0e29	0.1225856
85	0x3e1a21ad	0.15051909
86	0xbc343237	-0.0109983
87	0x3c4310ae	0.011905832
88	0x3e3c43d7	0.18385254
89	0xbc9f00db	-0.019409588
90	0x3e0352c3	0.1282454
91	0x3dbd6f5b	0.09249755
92	0x3e2c8eb2	0.16851309
93	0x3d979251	0.074009545
94	0xbd8ada47	-0.06779914
95	0x3dbaf450	0.0912863
96	0x3deaeaf5	0.11470596
97	0xbde8cab6	-0.11366789
98	0xbcd72212	-0.026261363
99	0xbc52bf29	-0.012862959
100	0x3c255f07	0.010093457
101	0x3d891783	0.06693938
102	0x3e736956	0.23770651
103	0xbd69d429	-0.057087097
104	0x3d90de2c	0.07073626
105	0x3e10d4bc	0.14143652
106	0xbdeb4b6b	-0.11488994
107	0x3d08f068	0.033432394
108	0x3e227744	0.15865809
109	0x3d7871f6	0.060655557
110	0x3db3e281	0.087834366
111	0x3ca2d2e1	0.019875946
112	0xbe0aee50	-0.13567472
113	0x3bf40eeb	0.0074480674
114	0x3e6d28ea	0.23160139
115	0xbdb2a262	-0.08722378
116	0xbc638385	-0.013886337
117	0x3e045ddd	0.12926431
118	0xbdc50913	-0.096208714
119	0x3e427514	0.18989974
120	0x3d8fbc42	0.07018329
121	0x3e43dab2	0.19126394
122	0xba19b848	-0.0005863947
123	0x3d9dd5d2	0.077067986
124	0x3d1a500d	0.037674
125	0xbe0a2203	-0.13489537
126	0x3c2d776f	0.010587557
127	0xbd6fb5ce	-0.05852299
128	0xbe08dde4	-0.13365895
129	0x3e3c2026	0.18371639
130	0xbd4097c5	-0.04701974
131	0x3df77458	0.12082738
132	0x3e208b53	0.15678148
133	0x3e213bf1	0.15745522
134	0x3dd8a8d4	0.105790764
135	0xbe000e2e	-0.12505409
136	0x3dd966dc	0.10615322
137	0xbc843e43	-0.01614297
138	0xbe1ca3b1	-0.15296818
139	0x3e13723d	0.14399047
140	0x3dcbece0	0.0995729
141	0xbc1cb423	-0.009564432
142	0x3e2f3caf	0.17112993
143	0xbd44f3c3	-0.04808403
144	0xbe0a4b08	-0.13505185
145	0x3cbdeee4	0.023185201
146	0x3df0a6da	0.117505744
147	0x3e2226fd	0.15835185
148	0x3e10ecc4	0.14152819
149	0x3e33fc35	0.17576678
150	0x3bc12828	0.0058946796
151	0xbdb56e27	-0.088589005
152	0x3dfa15f8	0.122112215
153	0x3db44a48	0.088032305
154	0x3e38d5ea	0.18050352
155	0xbd1c3b33	-0.038142394
156	0xbd5aa121	-0.05337632
157	0x3d868edb	0.06570216
158	0xbce65d02	-0.028120521
159	0x3e395a54	0.18100864
160	0x3d2e397d	0.042535294
161	0xbe5073dc	-0.20356697
162	0x3dea8866	0.11451797
163	0xbdcbeb4e	-0.0995699
164	0xbcbd6c29	-0.023122864
165	0xbe05730e	-0.13032171
166	0xbe5517ae	-0.20809814
167	0xbe543b3a	-0.20725718
168	0x3d2e3906	0.04253485
169	0xbdb32583	-0.08747389
170	0xbdf938ee	-0.121690616
171	0xbdba97b4	-0.09110966
172	0x3dd85794	0.10563579
173	0x3ba3b04d	0.004995382
174	0xbe3b5d0a	-0.1829721
175	0xbe59fb3c	-0.21287245
176	0xbdeaccd1	-0.11464847
177	0xbe039600	-0.12850189
178	0xbde98f83	-0.11404326
179	0xbe1a3ee1	-0.15063049
180	0xbdca8da6	-0.098902985
181	0x3cc30651	0.023806723
182	0xbe677eb1	-0.22606923
183	0xbe276b49	-0.1634952
184	0xbdba541e	-0.09098075
185	0xbe32187c	-0.17392153
186	0xbe6a5425	-0.22883661
187	0xbe49c4c9	-0.19703974
188	0xbcb16f1e	-0.02165943
189	0xbe71f01b	-0.23626749
190	0xbe1284d5	-0.14308484
191	0x3d3475bf	0.044057604
192	0xbdde276a	-0.108473614
193	0xbcef114e	-0.029183056
194	0x3d81787e	0.0632181
195	0x3e3041b4	0.17212564
196	0x3db4ca64	0.088276654
197	0x3dd937c5	0.1060634
198	0x3dec26ae	0.11530815
199	0x3d4f4a2b	0.05060784
200	0xbe025645	-0.12728222
201	0xbc7d3428	-0.01545433
202	0x3ad2b242	0.0016074853
203	0xbd4185ff	-0.04724693
204	0x3e09f53f	0.1347246
205	0xbc475afd	-0.012167689
206	0xbe0b9103	-0.13629536
207	0x3e76cbf1	0.24101235
208	0xbc35e8e5	-0.01110289
209	0xbdc6661e	-0.09687446
210	0xbcb96321	-0.022630276
211	0x3e51cc74	0.20488149
212	0x3dcdd08b	0.10049542
213	0x3e06b466	0.13154754
214	0x3e40944f	0.18806575
215	0xbd6f19d3	-0.058374237
216	0x3de4bbfc	0.11168668
217	0x3e3742eb	0.17896621
218	0xbd8db9fa	-0.06920238
219	0x3e542810	0.20718408
220	0xbd78606d	-0.060638834
221	0xbd4c1f6f	-0.049834665
222	0x3e48c06f	0.19604658
223	0xbc6b9700	-0.014379263
224	0xbdf049b0	-0.11732805
225	0xbe07c510	-0.13258767
226	0xbde386a9	-0.11109669
227	0x3d743068	0.059616476
228	0xbb1b05a6	-0.002365449
229	0x3e2023d1	0.15638663
230	0xbe024c09	-0.12724318
231	0x3cee171a	0.02906375
232	0x3bbf6705	0.0058411383
233	0x3e216eb2	0.15764883
234	0xbd8e83a1	-0.069587
235	0xbd3ef212	-0.046617575
236	0x3d3cf5da	0.0461329
237	0x3e0150de	0.12628505
238	0xbe14c47b	-0.14528076
239	0xbdda6738	-0.10664219
240	0xbdb942a5	-0.090459146
241	0xbda378b7	-0.07982009
242	0x3dadf9cc	0.084949106
243	0x3e3cdec1	0.18444349
244	0x3dfda6e4	0.123853475
245	0xbd6b4b00	-0.057444572
246	0x3b97cbf4	0.0046324674
247	0xbe106fa9	-0.14105095
248	0x3e554033	0.20825271
249	0xbdbbe716	-0.091749355
250	0x3bfd60da	0.007732493
251	0x3e46274f	0.19350933
252	0xbd9c6f3a	-0.07638402
253	0xbde0de6d	-0.10979924
254	0xbca13465	-0.019678304
255	0xbcc4b06e	-0.02400991

convs.0.lin_l.bias f4 [32]
0	0x3e06e01f	0.13171433
1	0xbd21bcd7	-0.039486732
2	0x3df8bb95	0.121451534
3	0x3d336797	0.043799963
4	0x3e508afc	0.20365518
5	0xbe3c412c	-0.18384236
6	0x3e74442e	0.23854133
7	0xbdb06a10	-0.0861398
8	0xbe60dc56	-0.21959051
9	0xbd95fddd	-0.07323811
10	0xbe0aa2d8	-0.13538682
11	0xbe3205c1	-0.17385007
12	0x3d5e3146	0.05424621
13	0xbd7c710f	-0.06163126
14	0x3e423fa1	0.18969585
15	0xbe6c7023	-0.23089652
16	0xbdf1943d	-0.11795852
17	0x3e7a0cc1	0.24418928
18	0xbe3372e4	-0.17524296
19	0x3e43fc03	0.19139104
20	0x3d84beae	0.06481682
21	0xbd041317	-0.032244768
22	0x3e82ca7a	0.25545102
23	0xbd96a3de	-0.07355474
24	0x3ddfdeef	0.10931193
25	0x3e48c6b9	0.19607057
26	0xbe60af5a	-0.21941891
27	0x3e600f4b	0.21880834
28	0x3e493232	0.19648054
29	0x3d8cc781	0.0687399
30	0xbe4a8ce5	-0.1978031
31	0xbe542ecd	-0.20720978

convs.0.lin_r.weight f4 [32, 32]
0	0x3e1d6899	0.15371932
1	0xbdcc9d74	-0.09990969
2	0x3db57bc7	0.08861499
3	0xbe1e0965	-0.15433271
4	0x3e37382e	0.17892525
5	0xbdcd46ad	-0.10023246
6	0xbd3d3209	-0.046190295
7	0x3dd1d6b3	0.10246029
8	0x3e476a2f	0.194741
9	0xbd145944	-0.036217943
10	0xbe07779c	-0.13229221
11	0xbcf0c302	-0.029389862
12	0x3df01e43	0.11724522
13	0xbd390a28	-0.0451757
14	0xbdd400ce	-0.10351716
15	0x3d892ba5	0.06697778
16	0x3e0aa216	0.13538393
17	0x3dfc7223	0.12326457
18	0x3db3997f	0.087695114
19	0x3d91311f	0.07089447
20	0x3e50e1e8	0.20398676
21	0xbd86b1dd	-0.065768935
22	0x3d699d70	0.05703491
23	0xbc16438a	-0.009171376
24	0x3e5a9ac6	0.21348104
25	0x3dcd4496	0.10022847
26	0x3e05cc86	0.13066301
27	0x3db957ae	0.09049927
28	0x3de82774	0.1133565
29	0x3da1eb7f	0.079062454
30	0x3cee9066	0.029121589
31	0xbdd2bbca	-0.10289724
32	0xbdc32378	-0.095282495
33	0xbc7ae046	-0.01531226
34	0xbcf4c3c6	-0.029878508
35	0x3dec88da	0.1154954
36	0xbd3a587b	-0.045494538
37	0xbb2124b8	-0.0024588536
38	0xbd9dfa51	-0.0771376
39	0xbe375593	-0.17903738
40	0x3be72f6e	0.0070552146
41	0xbe2ce7c2	-0.16885284
42	0xbe4cf88c	-0.20016688
43	0x3b6fc81a	0.0036587776
44	0x3de92f40	0.11385965
45	0xbdac0b0c	-0.084005445
46	0xbe0e8524	-0.13917977
47	0x3d1827f5	0.03714748
48	0xbe380eac	-0.17974347
49	0xbda2378e	-0.079207525
50	0xbc773bcd	-0.015089941
51	0xbe1f68de	-0.15567347
52	0xbd175239	-0.036943648
53	0xbe1d5841	-0.15365697
54	0xbd6903f7	-0.056888547
55	0xbe183b08	-0.14866269
56	0xbc6407c1	-0.013917864
57	0x3c8cc24e	0.017182495
58	0xbdd059ae	-0.10173355
59	0xbd851564	-0.064982206
60	0xbc0b5863	-0.00850496
61	0xbdeee7a2	-0.11665274
62	0xbde4ff41	-0.11181498
63	0x3d405c15	0.046962816
64	0x3e322e2e	0.17400429
65	0xbdab72b2	-0.08371486
66	0x3d00391a	0.031304456
67	0xbd8fe284	-0.07025626
68	0x3ca255e5	0.019816348
69	0xbc52d964	-0.012869213
70	0xbdd51f4c	-0.1040636
71	0x3e57f517	0.21089588
72	0xbdea67a7	-0.11445551
73	0x3ba898b1	0.0051451554
74	0xbd31c661	-0.04340208
75	0xbded2b6e	-0.11580549
76	0xbde189c2	-0.11012603
77	0xbdaa808f	-0.08325302
78	0x3df58b5c	0.11989471
79	0x3b12a625	0.0022376862
80	0x3db1794b	0.08665713
81	0x3cb98327	0.022645546
82	0x3d95d1d2	0.07315411
83	0x3d1ef363	0.03880633
84	0x3df30792	0.11866678
85	0x3d39ec52	0.04539139
86	0x3d6163c2	0.055026777
87	0x3dba2024	0.090881616
88	0x3e0241da	0.12720433
89	0x3d2e1141	0.042496923
90	0x3dc19ced	0.09453759
91	0x3db18455	0.086678185
92	0xbe03d80c	-0.12875384
93	0xbc91f78a	-0.017818231
94	0xbe03e873	-0.12881641
95	0xbde71bb6	-0.11284582
96	0x3dced482	0.100991264
97	0x3e26524d	0.16242333
98	0xbdfe5b42	-0.1241975
99	0xbdcb8fac	-0.099395126
100	0x3da975b0	0.082744
101	0x3e255fa9	0.16149773
102	0x3d719d47	0.058987882
103	0xbd84c845	-0.06483511
104	0x3c2b091d	0.0104391845
105	0x3ccdfa3e	0.025143739
106	0x3c48dfd7	0.012260399
107	0xbdd07ba9	-0.10179836
108	0x39c08a07	0.00036723932
109	0x3dbdf335	0.09274904
110	0x3dde88af	0.10865914
111	0xbd20e2c6	-0.039278768
112	0x3d8a8ae4	0.067647725
113	0xbd870aaa	-0.06593831
114	0x3e319e9f	0.17345665
115	0x3e2a6123	0.16638617
116	0x3dc10af1	0.09425915
117	0x3d53b730	0.051688373
118	0xbd9b456a	-0.07581599
119	0x3dbfd60a	0.093669966
120	0x3e4039e9	0.18772091
121	0x3e02f4b1	0.12788655
122	0xbd71e057	-0.059051838
123	0x3e000c91	0.12504794
124	0x3e3e986d	0.18612833
125	0x3e42f579	0.19038953
126	0x3e22ae5b	0.15886824
127	0x3debd249	0.11514718
128	0xbb09b3d4	-0.0021011727
129	0x3e2606dd	0.16213556
130	0x3e132a78	0.1437167
131	0xbdac51d7	-0.08414047
132	0xbe10e187	-0.14148532
133	0xbc75ccb4	-0.015002418
134	0x3beed847	0.007288966
135	0x3df72c5c	0.12069008
136	0x3dc403fa	0.09571071
137	0xbd7376be	-0.059439413
138	0xbe246381	-0.16053583
139	0x3df50e3c	0.119656056
140	0x3dcfb586	0.10142045
141	0x3d45118e	0.048112445
142	0x3e02a3ff	0.12757872
143	0x3e530795	0.20608361
144	0x3dcf96fe	0.10136221
145	0x3e237d0d	0.15965672
146	0x3dd25440	0.10269976
147	0x3bf4aacd	0.00746665
148	0x3e200afe	0.15629193
149	0x3e258a0d	0.16165943
150	0x3e0d91b9	0.1382512
151	0xbcd42a05	-0.025898943
152	0x3d8daf6c	0.06918225
153	0x3e34c267	0.17652284
154	0x3d027c81	0.031857017
155	0xbdf5f66c	-0.12009892
156	0xbd29d77d	-0.04146527
157	0x3d82eadc	0.06392452
158	0x3e0abc03	0.13548283
159	0xbc50927d	-0.012730238
160	0xbe171b22	-0.14756444
161	0xbdbb551f	-0.09147095
162	0xbd77b34f	-0.060473736
163	0xbb68bde3	-0.0035513572
164	0xbe1dc74a	-0.15408054
165	0xbe01b542	-0.126668
166	0xbdbc98d9	-0.09208841
167	0xbe27c881	-0.1638508
168	0xbd8bb1ff	-0.068210594
169	0x3c7073e1	0.014676065
170	0x3dfdb41d	0.123878695
171	0x3de9f554	0.11423746
172	0xbe0499dd	-0.12949319
173	0x3d190713	0.037360262
174	0xbc7f875e	-0.015596239
175	0xbe6bc3ae	-0.23023865
176	0x3dabf94b	0.08397158
177	0xbd9f54ea	-0.07779868
178	0x3c4baade	0.012430875
179	0x3dea31ae	0.11435257
180	0xbbcf8952	-0.0063335085
181	0xbe744328	-0.23853743
182	0x3d74edb3	0.059797
183	0xbdb1ce3d	-0.08681915
184	0xbba8ee60	-0.0051553696
185	0x3db3f512	0.08786978
186	0xbd169bfb	-0.03676985
187	0x3df25c1d	0.118339755
188	0xbd1eec2a	-0.038799442
189	0xbd7af300	-0.0612669
190	0x3da229fc	0.07918164
191	0xbd0dcc22	-0.034618504
192	0xbc929229	-0.01789196
193	0x3d6c1043	0.057632696
194	0xbd822df9	-0.06356425
195	0xbdd249b9	-0.10267968
196	0x3d88af06	0.06674008
197	0xbba2689f	-0.0049563195
198	0x3e62c3c3	0.2214499
199	0x3dcca002	0.099914566
200	0x3e1b80d8	0.15185869
201	0x3dec291d	0.11531279
202	0x3e4dc44f	0.20094417
203	0x3d14e702	0.03635312
204	0x3dc8b3b1	0.097998984
205	0x3c0b30a1	0.008495481
206	0xbd363bde	-0.044490688
207	0xbd19781f	-0.037468072
208	0x3e44fa4c	0.19236106
209	0xbdab36f0	-0.08360088
210	0xbd99a05b	-0.075012885
211	0x3db9c61d	0.0907099
212	0x3c9d00ae	0.019165363
213	0xbdd225fc	-0.10261151
214	0x3defcde3	0.11709192
215	0xbd741761	-0.05959261
216	0x3cb6ca0c	0.02231314
217	0x3e32a853	0.17447023
218	0x3e68e778	0.22744548
219	0x3e6beb40	0.2303896
220	0xbdc61503	-0.096719764
221	0x3d806393	0.06268992
222	0x3de5792b	0.112047516
223	0x3d871024	0.065948755
224	0x3dfc9fb2	0.12335147
225	0xbd181ef0	-0.03713888
226	0x3e25d1f4	0.16193372
227	0x3d4bc565	0.049748797
228	0xbe16e810	-0.14736962
229	0xbd431d8a	-0.047635593
230	0x3d2d407a	0.042297818
231	0xbdafd727	-0.08585959
232	0xbdcd7120	-0.100313425
233	0x3e4bb62a	0.19893709
234	0x3de545cf	0.111949556
235	0xbda1d5b0	-0.07902086
236	0xbbb6e9a5	-0.005582052
237	0x3d8fd163	0.07022359
238	0xbe20340a	-0.15644851
239	0xbde7d783	-0.113204025
240	0x3cfd8950	0.030949265
241	0x3e684b45	0.22684963
242	0x3db7dbc0	0.08977461
243	0x3d2b0168	0.041749388
244	0x3e025d2b	0.12730853
245	0x3e6041e1	0.21900131
246	0xbc6fcff6	-0.014636984
247	0xbcdca4d0	-0.026934057
248	0x3d3125ff	0.043249127
249	0xbe25d285	-0.16193588
250	0xbd8ef04d	-0.069794275
251	0x3e334e88	0.17510426
252	0x3cc8ff8e	0.02453592
253	0x3cce6814	0.025196113
254	0x3d90b8b5	0.0706648
255	0xbaff6d9d	-0.0019487623

convs.1.lin_l.weight f4 [32, 32]
0	0x3dece02b	0.11566194
1	0x3e0a231e	0.13489959
2	0x3c206065	0.009788607
3	0x3e55392a	0.20822588
4	0x3e695f92	0.22790363
5	0x3e1e4402	0.1545563
6	0x3d444150	0.04791385
7	0x3e1dec45	0.15422161
8	0xbc954cd5	-0.018225113
9	0x3daf56fd	0.085615136
10	0x3d8026bc	0.06257388
11	0xbd84dc47	-0.06487327
12	0x3e07f5c6	0.13277349
13	0xbdb9c401	-0.09070588
14	0x3e42a023	0.190064
15	0x3e48c247	0.19605361
16	0xbd8dedcb	-0.06930121
17	0xbd7622aa	-0.060091652
18	0x3e70cfa8	0.23516715
19	0x3d0f638c	0.035007045
20	0x3d9cc9d2	0.07655682
21	0x3dcd9dbb	0.1003985
22	0x3dd15d40	0.10222864
23	0xbd19993f	-0.037499662
24	0xbdebb07a	-0.115082696
25	0x3e689979	0.22714795
26	0x3d6913e6	0.056903742
27	0xbd18bb47	-0.037287977
28	0x3d3311f9	0.043718312
29	0xbe1c5252	-0.15265778
30	0x3e158c9e	0.14604422
31	0x3d93b79c	0.07212755
32	0x3e619c42	0.22032264
33	0xbd35c7af	-0.044379886
34	0x3e1b9632	0.15194014
35	0x3c840227	0.016114308
36	0xbda3a758	-0.07990903
37	0xbd0e18d4	-0.034691647
38	0x3e52c747	0.20583831
39	0x3d04602b	0.032318275
40	0x3e0ebb6c	0.13938683
41	0x3de16178	0.11004919
42	0xbd65af22	-0.056075223
43	0x3955184d	0.00020322316
44	0x3e521aaf	0.20517991
45	0x3df4b725	0.119489945
46	0x3e156a8a	0.14591423
47	0x3e0b8aa9	0.13627113
48	0xbd0e9846	-0.034813188
49	0x3e209fbc	0.15685934
50	0xbd39b309	-0.045336757
51	0x3e69b919	0.22824515
52	0x3e3082ca	0.17237392
53	0xbd9f75d2	-0.07786144
54	0x3e6576ce	0.22408602
55	0x3e02fb69	0.12791218
56	0x3debea57	0.11519306
57	0xbdc35feb	-0.09539779
58	0xbd9532e2	-0.07285096
59	0x3d41ef9b	0.047347646
60	0x3e7a08b2	0.2441738
61	0xbe010e3e	-0.12603089
62	0x3e31ac6e	0.17350933
63	0x3e5149b9	0.20438279
64	0xbdeca834	-0.1155552
65	0x3b89a6fd	0.0042008148
66	0xbe3e3e03	-0.18578343
67	0xbd74b273	-0.059740495
68	0xbdf23654	-0.118267685
69	0xbe44fcb6	-0.19237027
70	0xbe06eb79	-0.13175763
71	0x3d8b8b5c	0.0681369
72	0xbdb4c322	-0.08826281
73	0xbe04af90	-0.12957597
74	0xbe7464e2	-0.23866609
75	0xb89f2a1d	-7.589555e-05
76	0x3daeb487	0.085305266
77	0xbe103d7b	-0.14085953
78	0xbe3f8dd6	-0.1870645
79	0xbe244892	-0.16043308
80	0xbd491c50	-0.049099267
81	0xbd375cb9	-0.04476616
82	0xbe379b4a	-0.17930332
83	0xbdb4f155	-0.08835093
84	0xbda39803	-0.07987978
85	0xbe27900e	-0.16363546
86	0x3d1cc5c6	0.03827455
87	0xbe555afe	-0.20835492
88	0xbc074490	-0.008256093
89	0xbbe78465	-0.007065343
90	0x3a920c37	0.0011142556
91	0xbdb53130	-0.088472724
92	0xbe0f47ef	-0.13992284
93	0x3dcca720	0.09992814
94	0x3b419028	0.0029535387
95	0x3d5084aa	0.05090777
96	0x3e0c0bf1	0.1367643
97	0xbd9c9ace	-0.07646714
98	0x3dc88d3d	0.09792564
99	0x3e631017	0.22174107
100	0x3e27b1e6	0.16376457
101	0xbe2bb2a9	-0.16767372
102	0x3d1d1c95	0.038357336
103	0x3e334462	0.17506555
104	0x3dd006bf	0.10157537
105	0xbc5df930	-0.01354818
106	0xbc696c9b	-0.014247085
107	0xbdbbc872	-0.09169091
108	0x3e02e3c7	0.12782203
109	0x3e58b190	0.21161485
110	0x3dfccb65	0.12343482
111	0xbd4aa368	-0.049472243
112	0x3de955dc	0.113933295
113	0x3e149b47	0.14512359
114	0x3d28cd17	0.041211214
115	0x3d69eb66	0.05710926
116	0x3dc2663e	0.094921574
117	0xbdb1e490	-0.08686173
118	0x3dcda555	0.100413
119	0xbd5458c9	-0.051842485
120	0x3da0cba9	0.07851345
121	0x3e1edaec	0.155132
122	0xbd411a94	-0.047144488
123	0x3e02bb14	0.12766677
124	0xbd20a6e6	-0.039221667
125	0x3d2437d4	0.040092304
126	0x3d241448	0.040058404
127	0xbd9a524c	-0.07535228
128	0xbdb9e934	-0.09077683
129	0x3c03dcb8	0.008048229
130	0xbc2acb34	-0.010424424
131	0x3d788619	0.06067476
132	0x3c760663	0.015016171
133	0x3d90b4b3	0.07065716
134	0xbdebeee2	-0.11520173
135	0xbe2fa83f	-0.17154025
136	0xbd8b83b5	-0.068122305
137	0xbdb333e5	-0.087501325
138	0xbdb28890	-0.087174535
139	0x3ba28951	0.004960217
140	0xbdf42b56	-0.11922328
141	0x3e34afd9	0.17645206
142	0x3d890eff	0.066923134
143	0x3bb47e39	0.005508211
144	0x3d7411d3	0.05958731
145	0x3d73bbc1	0.059505228
146	0x3e24ea8f	0.16105102
147	0x3e4d9fe3	0.20080523
148	0x3e08cc34	0.13359147
149	0x3e431d09	0.19054045
150	0x3e77d646	0.24202833
151	0xbcc50704	-0.024051197
152	0x3e5918b7	0.21200834
153	0xbdc31e13	-0.095272206
154	0x3e71814c	0.23584479
155	0xbddee54c	-0.10883579
156	0x3e1ea94d	0.1549427
157	0x3c982c34	0.018575765
158	0x3e26bb79	0.16282453
159	0xbd894569	-0.06702692
160	0x3ce8c631	0.028414818
161	0xbc2ba340	-0.010475934
162	0xbcc34f8b	-0.02384164
163	0x3d863659	0.06553335
164	0x3e404225	0.18775232
165	0xbe0e6412	-0.13905361
166	0x3d25bf0c	0.0404654
167	0x3d45156e	0.04811614
168	0x3db61513	0.08890738
169	0xbd54a4e7	-0.051915076
170	0x3d8f8230	0.07007253
171	0xbdfbe4d5	-0.122995056
172	0xbd1d8a6e	-0.038462095
173	0x3e615bc5	0.22007664
174	0x3e6e291e	0.23257872
175	0x3d1ce945	0.0383084
176	0xbd6a9120	-0.05726731
177	0x3e0f35f3	0.13985424
178	0x3d1000a5	0.035156865
179	0x3d60ceb2	0.05488462
180	0x3e48e41f	0.19618271
181	0xbd98dbe4	-0.07463816
182	0x3e1e52b7	0.1546124
183	0x3d237a76	0.03991171
184	0x3d88216f	0.06647002
185	0x3dbc79d9	0.09202928
186	0x3d98e62b	0.07465776
187	0x3dad0bfa	0.0844955
188	0x3e3a5bf2	0.18199137
189	0x3c7d7490	0.015469685
190	0x3e2a818f	0.16650985
191	0x3e05e380	0.13075066
192	0x3df5084c	0.11964473
193	0x3e30d4c4	0.17268664
194	0xbc6ab99d	-0.01432648
195	0x3cdc020c	0.026856445
196	0x3e5a8e83	0.21343426
197	0x3bd6afec	0.0065517332
198	0xbd4f9f29	-0.050688896
199	0x3cdb64e8	0.026781514
200	0xbd9432a1	-0.07236219
201	0x3d8f9bd1	0.070121415
202	0x3e309017	0.17242466
203	0x3dfa735e	0.12229036
204	0xbdc1b481	-0.094582565
205	0xbd22ff6d	-0.039794374
206	0x3e352e8a	0.17693534
207	0x3e696002	0.2279053
208	0xbdaf251a	-0.085519984
209	0xbaf0a8f8	-0.0018360903
210	0x3d83911a	0.0642416
211	0xbc54aff1	-0.012981401
212	0xbda170c1	-0.07882834
213	0x3e1c6c17	0.15275608
214	0x3e19d25a	0.15021649
215	0x3e6498b4	0.22323877
216	0x3ddd2b4e	0.10799275
217	0x3e5b4800	0.21414185
218	0x3d6252c2	0.055254705
219	0xbdb2a682	-0.08723165
220	0x3dc5aa8f	0.09651672
221	0xbc017449	-0.00790126
222	0x3c7191e1	0.014744253
223	0x3e2b73f4	0.16743451
224	0x3dd306d4	0.10304037
225	0xbd6c1102	-0.057633407
226	0x3e3f21a4	0.18665177
227	0xbd9f094b	-0.07765444
228	0x3e2ae569	0.16689076
229	0x3d40ec88	0.047100574
230	0x3e18a5df	0.14907025
231	0x3d7077cd	0.058708
232	0x3e6d2e01	0.2316208
233	0xbdcbf073	-0.099579714
234	0x3d5571ad	0.052110363
235	0x3b38a66e	0.0028175372
236	0xbd98d398	-0.07462233
237	0x3c81f13a	0.015862096
238	0x3b67251c	0.0035269922
239	0xbb7ba2d4	-0.0038396614
240	0x3e2c491f	0.16824768
241	0xbde615b1	-0.11234606
242	0x3dd0ab93	0.10188975
243	0xbd2157c1	-0.03939033
244	0xbb63662c	-0.003469835
245	0x3e41f86c	0.18942422
246	0x3e52169b	0.20516436
247	0x3dbee493	0.09320941
248	0xbd24ebd6	-0.040263973
249	0x3e4cd0b9	0.20001496
250	0x3d7ffa62	0.062494643
251	0x3e073ed7	0.13207565
252	0x3a361954	0.0006946523
253	0xbd0af41e	-0.033924215
254	0x3e3e3864	0.18576199
255	0x3d35a701	0.04434872

convs.1.lin_l.bias f4 [32]
0	0x3da8ee9c	0.08248636
1	0x3e757daa	0.23973718
2	0xbde11e29	-0.10992081
3	0x3e861d0e	0.26194042
4	0x3e12547e	0.14290044
5	0x3e73d9ca	0.23813549
6	0xbd97efe6	-0.07418804
7	0x3da5c0a8	0.08093387
8	0x3e59ef4e	0.21282694
9	0xbdf27b69	-0.11839945
10	0xbe1ccd10	-0.153126
11	0x3e5425e2	0.20717576
12	0xbd470bcd	-0.04859524
13	0x3d62a812	0.055336066
14	0xbdb4ed78	-0.08834356
15	0x3d9bc8c1	0.0760665
16	0xbe3fc13e	-0.1872606
17	0x3e643c9d	0.22288747
18	0xbe6ea948	-0.23306763
19	0x3e09bb0b	0.13450257
20	0xbe37eca6	-0.17961368
21	0xbe595ea7	-0.21227513
22	0xbd2ef16c	-0.042710707
23	0xbe463d6b	-0.19359367
24	0xbdbf288a	-0.09333904
25	0xbcd077be	-0.025447723
26	0x3d89f230	0.06735647
27	0xbd8e8143	-0.069582485
28	0xbdf49d25	-0.119440354
29	0xbc1053ba	-0.0088090245
30	0xbe152e02	-0.14568332
31	0xbe4d09a4	-0.20023209

convs.1.lin_r.weight f4 [32, 32]
0	0x3bc8ad9c	0.0061242115
1	0xbda47ca0	-0.08031583
2	0xbe064b5c	-0.13114685
3	0x3d2c4b8c	0.042064235
4	0xbc1a0916	-0.00940158
5	0xbe2f9e6f	-0.17150281
6	0x3e69828e	0.22803709
7	0xbcccd0cf	-0.025001911
8	0x3d7a6bca	0.061137952
9	0x3e47d55f	0.19514988
10	0x3db51f03	0.08843806
11	0x3d3a08bc	0.045418486
12	0xbadd30ce	-0.0016875507
13	0x3e7290ca	0.23688045
14	0x3c349c4c	0.011023592
15	0x3dc31f61	0.095274694
16	0x3dd93d79	0.10607428
17	0x3dd5d937	0.10441821
18	0x3de27c20	0.11058831
19	0x3e21efaa	0.15814081
20	0x3dc58a08	0.09645468
21	0x3e42c321	0.19019748
22	0x3e050d61	0.12993385
23	0x3c7b0ba8	0.015322603
24	0x3e2b25c7	0.1671363
25	0x3e6a4613	0.22878294
26	0x3d0a834d	0.033816624
27	0x3d440b06	0.047862075
28	0x3e3ec0b0	0.18628192
29	0xbcc158de	-0.023601945
30	0x3d0bbc93	0.034115385
31	0xbd0cec40	-0.034404993
32	0xbcbea167	-0.023270322
33	0x3d2f0deb	0.042737883
34	0x3e593bae	0.21214172
35	0x3e3ffd89	0.1874906
36	0x3d83e16e	0.06439482
37	0x3e1ad698	0.15120924
38	0xbdd99278	-0.1062364
39	0x3d076276	0.033052884
40	0xbd134dc9	-0.035962854
41	0x3d711c19	0.058864687
42	0xbd31ad57	-0.0433782
43	0x3dec7662	0.11546017
44	0xbd977259	-0.07394857
45	0x3dc12a1d	0.094318606
46	0x3e3bb4e7	0.18330728
47	0xbc79392a	-0.015211383
48	0x3d0fb2ff	0.035082813
49	0xbdbb5fe9	-0.09149153
50	0x3c4ef6d2	0.012632089
51	0x3e6019f5	0.21884902
52	0x3e5d7040	0.21624851
53	0x3d0c07d1	0.03418714
54	0x3e6709ac	0.22562283
55	0x3d0d2c22	0.034465916
56	0x3d896a23	0.06709697
57	0x3dd6307f	0.10458469
58	0x3de29b84	0.110648185
59	0xbdd937cf	-0.10606348
60	0x3e479968	0.19492114
61	0x3e0f46cc	0.1399185
62	0x3e3ece15	0.18633302
63	0xbd1ea802	-0.038734443
64	0xbdd06093	-0.1017467
65	0x3d219e8a	0.039457835
66	0xbd2c6657	-0.042089786
67	0xbc0da88f	-0.0086461445
68	0x3d76ee93	0.060286116
69	0xbe496e8c	-0.19671077
70	0x3d360dac	0.044446632
71	0xbcf91e70	-0.030410022
72	0xbe55c936	-0.20877537
73	0xbd415478	-0.047199696
74	0x3e135fd7	0.14392029
75	0xbe4eeaed	-0.20206805
76	0xbe307bf5	-0.17234786
77	0xbc6050d9	-0.013691151
78	0xbe101d3e	-0.14073655
79	0xbcfbfbcc	-0.030759715
80	0xbe0bed43	-0.13664727
81	0x3da805e1	0.08204246
82	0xbe1764a0	-0.14784479
83	0xbe2e9522	-0.17049077
84	0xbe4dda54	-0.20102817
85	0xbe774d2d	-0.24150534
86	0xbe65163c	-0.22371763
87	0xbd4e26a0	-0.050329804
88	0x3cc9c65d	0.02463072
89	0xbc921da7	-0.017836405
90	0xbd8c9a17	-0.06865328
91	0x3d6fdfff	0.05856323
92	0xbe61be22	-0.22045186
93	0xbd18456e	-0.03717559
94	0xbcd7f3d9	-0.026361393
95	0xbe44cecd	-0.19219513
96	0x3e531fd4	0.2061761
97	0x3db75dd2	0.08953442
98	0xbe059beb	-0.13047759
99	0xbd405dcf	-0.046964463
100	0xbcad9a4d	-0.02119174
101	0x3d216cfb	0.039410572
102	0x3e57fe8d	0.21093197
103	0xbddd7edc	-0.10815212
104	0xbdb474c7	-0.08811336
105	0x3e0310f9	0.12799443
106	0x3d52b935	0.05144616
107	0x3d99595f	0.07487749
108	0x3a586962	0.00082554494
109	0x3e687220	0.22699785
110	0x3d94af60	0.072600126
111	0x3dda7827	0.106674485
112	0x3d0c1885	0.03420307
113	0x3e36c24a	0.17847553
114	0xbdb32bcd	-0.08748589
115	0x3e163679	0.14669217
116	0xbddccbd9	-0.10781068
117	0x3e53f183	0.20697598
118	0x3e1abc9f	0.15111016
119	0xbd896081	-0.0670786
120	0x3e5dd73a	0.21664134
121	0x3e5d7011	0.21624781
122	0x3c0d2aa6	0.008616125
123	0x3de4143d	0.11136673
124	0x3e082d5b	0.13298552
125	0x3db9219b	0.09039613
126	0xbd38e180	-0.04513693
127	0x3d16a897	0.036781874
128	0x3e443275	0.19159873
129	0x3dc0ad2c	0.0940803
130	0x3e044843	0.1291819
131	0x3df31f15	0.11871163
132	0x3de2e8a6	0.110795304
133	0xbe18eb03	-0.149334
134	0x3d32e8ec	0.043679163
135	0xbc4c03c3	-0.012452069
136	0xbda014b3	-0.07816448
137	0xbdbfa489	-0.093575545
138	0x3e40bab2	0.18821219
139	0x3cbfcbdc	0.023412637
140	0xbdb00ea3	-0.08596542
141	0xbd078644	-0.03308703
142	0xbd71c688	-0.059027225
143	0x3dfc7791	0.12327493
144	0x3d9c3413	0.0762712
145	0xbce7aa83	-0.028279549
146	0x3dc73c52	0.09728302
147	0xbd9411af	-0.072299354
148	0xbe04ab47	-0.12955962
149	0x3dce9db4	0.10088673
150	0x3e7f4503	0.2492867
151	0x3e1915cf	0.14949726
152	0x3e3c7529	0.18404068
153	0xbce599ef	-0.028027503
154	0x3db6a957	0.08919018
155	0xbd536b5c	-0.051616058
156	0x3da210fb	0.07913395
157	0x3d6aa450	0.057285607
158	0xbc4f99f6	-0.0126709845
159	0x3cf13601	0.029444696
160	0x3d1455bf	0.036214586
161	0x3d83436b	0.06409343
162	0x3d775038	0.060379237
163	0x3e5039e7	0.20334588
164	0xbcc4db04	-0.024030216
165	0xbdfc0e7a	-0.12307449
166	0xbdcccddd	-0.10000203
167	0x3dbf7b7f	0.09349727
168	0xbd9cd3c3	-0.07657578
169	0x3c5c9885	0.013464098
170	0x3d9d401a	0.07678242
171	0xbdf6da9b	-0.120534144
172	0x3b95deb0	0.0045736656
173	0x3e072b34	0.13200074
174	0x3d835e37	0.064144544
175	0xbbb84062	-0.0056229094
176	0xbbc0c7ac	-0.0058831777
177	0x3e5cbb79	0.2155589
178	0xbd79df82	-0.06100417
179	0x3cd2da37	0.025738819
180	0x3e0a97c7	0.13534461
181	0x3dac3172	0.084078684
182	0xbdc49e14	-0.096004635
183	0xbd3d8b33	-0.04627533
184	0xbd632595	-0.055455763
185	0x3d310c32	0.04322452
186	0x3dd2419b	0.102664195
187	0x3e338d9c	0.17534488
188	0x3d0ce259	0.03439555
189	0x3d434d75	0.04768129
190	0x3e3b81c9	0.18311228
191	0xbd091d3c	-0.033475146
192	0xbdc9649b	-0.09833642
193	0x3e02d859	0.12777843
194	0xbe12fb14	-0.14353591
195	0x3e39214e	0.18079111
196	0x3e3ec153	0.18628435
197	0xbe432d97	-0.1906036
198	0xbdda1563	-0.106486104
199	0x3b17294d	0.0023065389
200	0x3da32d31	0.07967604
201	0x3ce9dd7b	0.028547993
202	0xbe12397b	-0.1427974
203	0x3deedb81	0.11662961
204	0x3d8a5b5f	0.06755709
205	0x3e2e7b69	0.17039265
206	0xbd8b5915	-0.068041004
207	0xbd93bdff	-0.07213973
208	0x3e1ea331	0.1549194
209	0x3d8bb275	0.06821147
210	0x3a361569	0.00069459394
211	0x3c8c3902	0.017117027
212	0xbdcf7f54	-0.10131708
213	0x3e3777cb	0.17916791
214	0x3e04c1a0	0.12964487
215	0x3e6ca74c	0.23110694
216	0xbd809652	-0.06278671
217	0xbdf1523f	-0.11783265
218	0x3e08e76f	0.13369535
219	0x3dffd658	0.12492055
220	0xbdc4f506	-0.09617047
221	0x3c9ed4d6	0.019388597
222	0xbd9d2af7	-0.076742105
223	0x3dbb6fae	0.091521606
224	0xbda45e32	-0.08025779
225	0xbd307c1d	-0.043087114
226	0x3c78d981	0.015188576
227	0x3e15f259	0.1464323
228	0xbdb84c5a	-0.08998938
229	0x3dc4d191	0.09610284
230	0x3d9d19e7	0.07670956
231	0x3d48e327	0.049044754
232	0x3d91d01f	0.07119774
233	0x3db68dd2	0.08913769
234	0x3dcc608f	0.099793546
235	0xbe1cdbc7	-0.15318213
236	0x3b2b9c56	0.0026185713
237	0xbd33fd81	-0.043942932
238	0x3d9fee40	0.078091145
239	0x3e18a542	0.14906791
240	0x3e48f100	0.19623184
241	0xbdcc0d3b	-0.09963461
242	0x3e5bb056	0.21453986
243	0xbdd1b2c2	-0.102391735
244	0x3d471982	0.04860831
245	0x3e1e14f8	0.15437686
246	0x3d5c2517	0.05374631
247	0x3cd8d24f	0.02646747
248	0xbdb8b877	-0.09019559
249	0xbdd2ccdd	-0.10292981
250	0x3e3c4ca1	0.18388607
251	0x3e26762d	0.16256018
252	0x3e3da626	0.18520412
253	0xbe2a3cd3	-0.16624765
254	0x3e5b04a3	0.21388488
255	0x3e5701b6	0.20996746

convs.2.lin_l.weight f4 [32, 32]
0	0xbdf92fb5	-0.121673025
1	0xbdb9d7dd	-0.09074376
2	0xbd89f24e	-0.06735669
3	0x3d98f86a	0.07469256
4	0xbe2d91b7	-0.16950117
5	0xbcdd6ede	-0.027030405
6	0x3dae423c	0.08508727
7	0xbe4ebbe3	-0.2018886
8	0xbe2b75b6	-0.16744122
9	0x3d4d75ae	0.050161056
10	0x3dd15816	0.10221879
11	0xbdc7bce3	-0.09752824
12	0xbda2f16f	-0.07956206
13	0xbdfac83c	-0.12245223
14	0xbb897c67	-0.004195738
15	0xbde8a9fe	-0.113605484
16	0xbe29aff9	-0.16571034
17	0x3dce47b8	0.10072273
18	0x3d18b760	0.037284255
19	0xbe308192	-0.17236927
20	0x3bf2d392	0.007410475
21	0xbc9bd278	-0.019021258
22	0x3e621ff8	0.22082508
23	0xbe1bcc8d	-0.15214749
24	0xbdc6ec07	-0.097129874
25	0xbd9cc1c4	-0.07654145
26	0xbe58cdb7	-0.21172224
27	0x3d76b344	0.060229555
28	0xbd9c203c	-0.07623336
29	0x3dc83f64	0.09777716
30	0xbd25008c	-0.040283725
31	0x3dee131c	0.116247386
32	0xbde505e1	-0.11182762
33	0x3e0e129f	0.13874291
34	0x3e005d01	0.12535478
35	0xbe3277af	-0.17428468
36	0x386d2000	5.6535006e-05
37	0xbdac4ca3	-0.08413055
38	0xbe0327e0	-0.1280818
39	0xbe1ae221	-0.15125324
40	0xbe19b9d8	-0.150123
41	0xbde65641	-0.112469204
42	0x3e134ae5	0.14384039
43	0x3df16da6	0.11788492
44	0xbdb6baf5	-0.08922378
45	0x3d53a50c	0.051671073
46	0xbe0302a8	-0.12793982
47	0xbe212213	-0.15735655
48	0x3d8ae090	0.06781113
49	0xbdc5eab2	-0.09663905
50	0xbd61e7f2	-0.05515284
51	0xbe2a3a6c	-0.16623849
52	0x3d4f1750	0.050559342
53	0x3e1dfdfb	0.15428917
54	0xbe101c95	-0.14073403
55	0x3e22f31d	0.15913053
56	0xbbf05d20	-0.00733532
57	0xbe1eeaa3	-0.15519194
58	0x3e2b89e1	0.16751815
59	0xbde816de	-0.113324866
60	0x3e150979	0.14554395
61	0x3df5c2ae	0.12000023
62	0x3c9d1a78	0.01917766
63	0x3e26cd2d	0.16289206
64	0x3ac06e43	0.0014681298
65	0xbe7ae73f	-0.24502276
66	0x3d815ee4	0.06316927
67	0xbc84749d	-0.016168887
68	0xbccdc831	-0.025119873
69	0xbe37b5fd	-0.17940517
70	0xbde0abab	-0.10970243
71	0xbdf4c8d5	-0.11952368
72	0xbe1ff1fc	-0.15619653
73	0xbd5074c8	-0.05089262
74	0xbd73733e	-0.059436075
75	0xbdf0b801	-0.11753846
76	0x3bcb2d1e	0.0062004467
77	0xbe2e4f32	-0.17022398
78	0xbd5fb722	-0.05461801
79	0xbd3dc97d	-0.046334732
80	0x3aa80780	0.0012819618
81	0xbe3ccca1	-0.18437435
82	0xbddcc77c	-0.10780236
83	0xbe76aed8	-0.24090135
84	0x3cb74123	0.022369927
85	0x3c4e4700	0.01259017
86	0x3da94309	0.08264739
87	0x3e0573a5	0.13032396
88	0xbe302b27	-0.17203961
89	0xbe3f9278	-0.18708217
90	0x3d10f7a9	0.035392437
91	0x3df5d512	0.120035306
92	0x3d5f88b0	0.054573715
93	0xbe4e6bdb	-0.20158331
94	0x3dec2102	0.11529733
95	0xbdfc74fe	-0.12327002
96	0x3e187923	0.1488996
97	0xbd352220	-0.044221997
98	0xbd9b0f73	-0.07571306
99	0x3df8e72a	0.12153466
100	0x3be6c8e0	0.007042989
101	0xbdd1ff0a	-0.10253723
102	0xbd5838a0	-0.052788377
103	0xbdb8550f	-0.09000599
104	0x3de8c49a	0.11365624
105	0x3df216e2	0.11820771
106	0x3cbefe88	0.02331473
107	0xbda41ace	-0.08012925
108	0xbd54f912	-0.051995344
109	0xbd8c6467	-0.06855088
110	0xbe2b0777	-0.16702066
111	0x3e10051d	0.1406445
112	0x3e2937b3	0.16525154
113	0x3e2bd9ab	0.16782252
114	0x3e2e7111	0.17035319
115	0xbe2c4409	-0.16822828
116	0x3dfa907a	0.12234588
117	0x3d7d16a4	0.06178917
118	0xbde9e24f	-0.11420118
119	0x3e19079d	0.1494431
120	0xbd95132c	-0.07279047
121	0xbd9b05f3	-0.07569494
122	0xbe336022	-0.1751714
123	0x3d8908c2	0.066911235
124	0x3de364b2	0.111031905
125	0x3da07312	0.07834448
126	0xbdec4592	-0.11536707
127	0xbdcc4c20	-0.09975457
128	0x3e153ba9	0.1457354
129	0xbd99b19b	-0.07504579
130	0xbc50ab7a	-0.012736196
131	0x3e55c702	0.20876697
132	0xbde79661	-0.113079794
133	0x3c80437c	0.015657179
134	0xbdf03480	-0.117287636
135	0xbd14e117	-0.036347475
136	0x3da3332b	0.07968744
137	0x3d76a623	0.060217034
138	0xbe2b7dac	-0.16747159
139	0x3e564667	0.20925294
140	0x3cdbfa73	0.026852822
141	0x3ddc1002	0.10745241
142	0x3e2d75f2	0.16939524
143	0x3d59cb88	0.05317262
144	0x3d2e03f4	0.04248424
145	0xbd90dbbe	-0.070731625
146	0x3c8c6b28	0.01714094
147	0x3e2310a8	0.15924323
148	0x3cfdcc07	0.030981077
149	0x3e0fe871	0.14053513
150	0x3dd19f5a	0.10235472
151	0x3e05ea47	0.13077651
152	0x3ddc6652	0.107617036
153	0x3e0080a9	0.1254908
154	0x3e2844d9	0.16432513
155	0xbcd2a7dd	-0.02571481
156	0xbdf4b6bc	-0.11948916
157	0xbd38f535	-0.045155723
158	0x3e34ac5b	0.17643873
159	0xbd5c1223	-0.053728234
160	0x3d97df04	0.07415584
161	0xbdf2579e	-0.11833118
162	0xbdd4e173	-0.103945635
163	0xbe698ac7	-0.22806846
164	0xbe3a1e58	-0.18175638
165	0x3d8ee3c0	0.069770336
166	0xbd0738c9	-0.03301314
167	0xbe046e0e	-0.12932608
168	0xbdcb9821	-0.09941126
169	0x3ceadc46	0.028669488
170	0x3d609b50	0.054835618
171	0xbe6ae9a6	-0.22940692
172	0x3da5392c	0.08067545
173	0x3cfc804c	0.030822895
174	0xbd81eb17	-0.06343668
175	0xbdb0e983	-0.08638289
176	0x3c45a551	0.01206334
177	0x3db4cbff	0.08827972
178	0x3d3c5910	0.045983374
179	0x3bb87644	0.0056293327
180	0x3d6d9dc4	0.058011785
181	0xbd348fec	-0.044082567
182	0xbd0cf78c	-0.034415767
183	0xbe420095	-0.18945535
184	0x3d9b5e4e	0.075863466
185	0x3d98ea01	0.07466508
186	0xbe709b87	-0.23496829
187	0x3c138c5b	0.009005631
188	0xbdf3cf04	-0.119047195
189	0xbe2bd20c	-0.16779345
190	0x3da53aa7	0.08067828
191	0xbe446c01	-0.19181825
192	0xbcb9a514	-0.022661723
193	0x3e0c1aa2	0.13682035
194	0x3dc2a4fa	0.09504123
195	0x3d48e7ee	0.04904931
196	0x3d347f4f	0.044066723
197	0xbc8980d8	-0.01678507
198	0xbe19d9a4	-0.1502443
199	0xbda90953	-0.082537316
200	0xbda05e82	-0.07830526
201	0x3e71e600	0.23622894
202	0x3e15445b	0.14576857
203	0xbd7e1f7a	-0.062041737
204	0x3d60ca07	0.05488017
205	0xbdcaacbd	-0.098962285
206	0x3cfd5481	0.030924084
207	0x3c7bd6b2	0.015371012
208	0xbd7273e3	-0.05919255
209	0x3de9a885	0.11409096
210	0xbd8db593	-0.06919398
211	0xbcbde62a	-0.02318104
212	0x3e47d83f	0.19516085
213	0xbd85bfe0	-0.06530738
214	0xbd136810	-0.035987914
215	0x3d0f25a8	0.03494802
216	0x3d318528	0.04333988
217	0x3e152cba	0.14567843
218	0x3c1adc51	0.009451942
219	0xbd6e4223	-0.05816854
220	0xbc9e21e9	-0.019303279
221	0x3ce7e4d3	0.028307354
222	0x3cf13406	0.029443752
223	0x3e077226	0.13227138
224	0x3d4b3d7b	0.04961918
225	0xbd6438d0	-0.055718243
226	0x3d4dd83b	0.05025504
227	0xbd2436a0	-0.040091157
228	0xbb1164f9	-0.0022185429
229	0x3d7514b6	0.059834205
230	0xbd017566	-0.0316061
231	0xbe128c30	-0.1431129
232	0x3c7697bb	0.015050824
233	0x3e5b70f3	0.21429805
234	0x3e0148ed	0.12625475
235	0xbd5f87e1	-0.054572944
236	0x3d9f2a83	0.0777178
237	0x3da4dc4a	0.08049829
238	0x3e3f52b0	0.18683887
239	0x3e109bbb	0.14121906
240	0x3c44c441	0.012009681
241	0xbdfde0c4	-0.12396386
242	0x3d2b0940	0.04175687
243	0x3da155c8	0.078776896
244	0x3db8f36e	0.090308055
245	0xbd151034	-0.036392406
246	0x3de73386	0.11289124
247	0xbbef6805	-0.0073061013
248	0xbbdb29c0	-0.0066883266
249	0x3d4b4504	0.049626365
250	0xbc693c2c	-0.0142355375
251	0x3e0ae63e	0.13564393
252	0x3d8c5df1	0.068538554
253	0x3e04c2a3	0.12964873
254	0x3e110b12	0.14164379
255	0x3dcb5566	0.09928398
