models/GAT/gat_best_model.pt (torch, 12378 bytes, 9 tensors)

convs.0.att_src f4 [1, 1, 32]
000000 1f 83 49 bd 5f 06 6a be 47 59 89 3e d1 66 68 be
       -0.049197312 -0.22853993 0.26825926 -0.22695471
000010 ef 63 2c 3e 05 8c 62 be 0a df be be 29 80 6b 3c
       0.16834997 -0.22123726 -0.3727954 0.0143738175
000020 03 a9 18 be 44 e2 a5 be 25 14 a2 3e c3 7f 56 be
       -0.14908223 -0.3239919 0.31655994 -0.20947175
000030 48 08 61 bd 1e ee 85 be f6 65 cc be 85 b8 8b 3e
       -0.05493954 -0.26158231 -0.3992154 0.27289215
000040 26 99 81 bd 32 00 f4 3a 5a 5a 33 3d c3 2c 28 3e
       -0.06328039 0.0018615781 0.043787338 0.16423325
000050 de bf 42 be 6c ba b4 be a8 55 46 3e be 75 94 3e
       -0.19018504 -0.3529848 0.19368613 0.2899608
000060 95 4f 81 3e c1 4e b0 be 91 09 1e 3e 25 c6 ab be
       0.2525603 -0.34435084 0.15433337 -0.3354961
000070 ff e1 ef bb a3 54 8e bd 13 d4 9f be 8f 74 8a 3e
       -0.007320642 -0.06949737 -0.31216487 0.27042052

convs.0.att_dst f4 [1, 1, 32]
000000 70 0f dc be 3b 88 48 3e e8 58 70 3e 2e 58 cc 3d
       -0.42980528 0.19583218 0.23471415 0.099777564
000010 3a 58 39 3e 2a bb 61 be d3 a8 63 3e c1 f7 22 be
       0.18100062 -0.22044054 0.2223237 -0.15914823
000020 4b 99 05 bf d2 14 6f 3e 67 f6 e5 3e b9 c0 dd be
       -0.5218703 0.23347786 0.44914553 -0.43311098
000030 4d 55 2b 3d 3e 00 a0 be 6c 33 0b bf 20 62 10 be
       0.041829396 -0.31250185 -0.5437534 -0.14099932
000040 84 fd 9b be 4b 62 6f 3e 98 78 11 3f 85 c0 86 3e
       -0.30466855 0.2337734 0.56824636 0.26318756
000050 4f 4c d2 bd 6c 36 b3 be a4 54 44 bf f5 d3 f0 3d
       -0.10268461 -0.35002458 -0.7669165 0.117591776
000060 05 e4 0f bf 83 34 4b 3e 86 a0 49 be 27 b7 b1 be
       -0.56207305 0.1984425 -0.19690141 -0.34710047
000070 85 66 4d 3e f1 da a8 3d 18 0c a2 3e a5 81 ac 3e
       0.2005864 0.08244885 0.31649852 0.3369266

convs.0.bias f4 [32]
000000 38 86 ea bd 6e f3 8a bd ef bc 81 3d 25 5a 1e 3e
       -0.114513814 -0.06784712 0.06334864 0.15464075
000010 27 82 0c be b9 b9 7e bd 77 cd 19 be a1 cd 04 be
       -0.13721524 -0.062188838 -0.15019785 -0.12969066
000020 33 b7 ca bd 4c f1 17 3e 93 15 18 3e 27 30 59 bd
       -0.09898224 0.14838141 0.1485198 -0.053024437
000030 5b 11 c5 bd e1 b0 09 3e 48 59 24 be 66 71 1a be
       -0.09622451 0.1344638 -0.16049683 -0.1508232
000040 fe cf 15 3e 33 88 1a 3e cc 2c 19 3e b5 90 fd 3d
       0.14630124 0.15091018 0.14958495 0.12381116
000050 03 0a 1b 3e fc 65 18 3e c1 99 19 be da 84 15 3e
       0.15140538 0.14882654 -0.15000059 0.1460146
000060 6c 73 ab 3d a6 c9 fb bd 64 a5 15 3e e3 64 ef bc
       0.08371624 -0.12294321 0.14613873 -0.029222911
000070 2f c3 17 3e 8a c4 ae 3d 75 40 15 3e 34 d9 0c 3e
       0.1482055 0.085335806 0.1457537 0.13754731

convs.0.lin.weight f4 [32, 27]
000000 ee be 4f bc 9f 04 6e 3e e2 af 5e be 7d e7 e2 bc
       -0.0126797985 0.2324395 -0.21746781 -0.027698273
000010 2b 05 b6 bc 37 a3 1c bf a8 69 0f bf db 0d de be
       -0.022219261 -0.61186546 -0.56020594 -0.43369946
000020 ce 64 66 be cd 4d 36 3d 69 91 1a bf 78 c9 e3 bb
       -0.22499391 0.04450779 -0.6037813 -0.006951507
000030 23 bc 13 bf e1 f8 21 bf d7 39 3f be e4 85 c8 be
       -0.5770895 -0.63270384 -0.18674408 -0.3916465
000040 f4 fd f4 be 0c 1b 24 be 64 0a 06 3e 0d 9d 85 bd
       -0.4785 -0.16025943 0.13089901 -0.06524096
000050 47 ec 3f be 89 e5 39 bf 7d 32 94 be 9a b2 0c bf
       -0.18742476 -0.7261587 -0.2894477 -0.54960024
000060 c9 60 3f bf b9 de 36 bf 9d 0c 00 be a9 dc 86 be
       -0.7475706 -0.714336 -0.12504812 -0.26340225
000070 12 76 60 3e 44 7d b3 bd 96 d9 a4 be ab 28 a5 3e
       0.2192004 -0.08764127 -0.32197255 0.3225759
000080 f7 e9 c2 3d 1f d3 2d be 4c fa 85 bf 5a 22 ca be
       0.095172815 -0.16975068 -1.046701 -0.39479333
000090 b1 a4 78 be 16 a7 ab be 40 56 06 be fd bd 1e be
       -0.24281575 -0.33525914 -0.1311884 -0.15502162
0000a0 58 8f fb 3a 86 b3 2e bf 74 73 39 bf 54 98 8e bf
       0.00191925 -0.6824268 -0.7244179 -1.1140237
0000b0 31 dc 3d be 10 ab 24 bf cf 99 97 bd 08 d4 13 bf
       -0.18541028 -0.6432352 -0.074023835 -0.5774541
0000c0 7a 2c 22 be d3 68 d2 be 90 66 d1 be d6 c2 87 be
       -0.15837279 -0.410956 -0.4089856 -0.26515836
0000d0 00 eb dd be 04 1c 7b be ac 21 8f be 55 e4 00 be
       -0.43343353 -0.24522406 -0.27955377 -0.12587102
0000e0 16 91 17 3e a7 25 b0 3e b9 f8 ec bd 46 9a 28 be
       0.1480144 0.34403726 -0.115708776 -0.164651
0000f0 5b 78 8a 3d f2 84 15 be 11 7d 42 3e d6 03 0f be
       0.06761237 -0.14601496 0.18993022 -0.13966307
000100 5b 20 9d 3e 13 17 22 3e 91 58 52 3e ed e7 47 be
       0.30688748 0.15829115 0.20541598 -0.19522066
000110 9c 55 5f be 5e 94 cc be 95 6d ea 3e 08 db e1 bd
       -0.21810001 -0.39956945 0.4578673 -0.11028105
000120 f1 80 cd 3e 52 3a 56 be 26 90 1d 3f 47 0d 45 3e
       0.40137437 -0.20920685 0.6154808 0.19243346
000130 5f 3a e8 3e ba 1a 7a 3e e0 d1 f1 3d ca 9a fa 3e
       0.45357034 0.24424258 0.118076086 0.4894622
000140 90 d3 c1 3c 28 d8 44 3e 25 3c 28 bc 0a 1c 01 bf
       0.023660451 0.19223082 -0.010268246 -0.5043341
000150 8c 6a a6 be 11 6d 95 3a 4b 8d b9 3e 60 c3 e0 3e
       -0.32503164 0.0011400302 0.3624061 0.4389906
000160 3e 4e 9c 3e ab fe b4 3e 8f 53 89 3e a2 12 bc 3e
       0.30528444 0.35350546 0.26821563 0.36732966
000170 1a d4 cd 3e 92 c9 35 3e 39 46 7a 3e 37 58 00 3e
       0.40200883 0.17752674 0.2444085 0.12533651
000180 0c ac 5e 3d d6 42 a7 3e a3 da 06 3f e1 e8 26 bd
       0.054363295 0.3266818 0.52677363 -0.040749434
000190 d8 7f 6c 3e 62 62 2f 3f d4 08 88 3d b8 23 08 3f
       0.23095644 0.68509495 0.06642309 0.531795
0001a0 ef 30 c1 bc 65 02 7c 3e fc b2 2a 3f e5 cd b1 3d
       -0.023582904 0.24610288 0.6667936 0.086818494
0001b0 69 af d7 bb 40 cd 9c be ff 47 b3 3d cb 17 b5 bd
       -0.00658219 -0.30625343 0.087539665 -0.08842429
0001c0 c7 94 d5 bd e6 8a e4 bd 01 69 09 bf b8 21 c8 bd
       -0.10428768 -0.11159305 -0.5367585 -0.09772056
0001d0 6a 0e eb bd 20 17 6a 3c c8 04 cf be 8c 94 a8 be
       -0.11477359 0.01428774 -0.40433335 -0.32925832
0001e0 ff 3b a4 be 45 98 93 be 73 d9 93 bd f7 52 ff be
       -0.32077023 -0.2882711 -0.072192095 -0.49867985
0001f0 f6 92 8b be e8 23 5a be 6c 58 a9 be 9d 71 2c bf
       -0.2726056 -0.2130276 -0.33075273 -0.6736086
000200 c2 ba 17 bf f6 35 1a bf 90 c2 2f bf da 5a 70 be
       -0.59269345 -0.6023859 -0.68656254 -0.23472157
000210 bf d7 e4 be a8 53 c7 be bf d5 ec be 41 99 4b be
       -0.4469585 -0.38931012 -0.46256825 -0.1988268
000220 23 2c 40 be b9 81 92 3c 8a 45 a3 be e3 1d 45 3e
       -0.18766837 0.017884122 -0.31888992 0.19249682
000230 9d b9 81 be e2 30 06 bf cc b2 51 bf a0 10 e5 3c
       -0.25336924 -0.5241834 -0.8191345 0.027962029
000240 9d 56 45 3d f3 42 7d bd 1f a2 07 bf 59 1f 8e be
       0.048178304 -0.061831426 -0.5298175 -0.2775829
000250 87 9e bb be 9e 83 1e be 00 a9 79 be 1f 06 fc be
       -0.36644384 -0.15479895 -0.24380875 -0.4922342
000260 a9 19 05 bf 59 c1 82 bf 81 60 10 be 99 c3 ba bf
       -0.5199228 -1.0215255 -0.14099313 -1.4590942
000270 d2 c3 1e bf ce 9e 4e be 45 67 39 bf 78 8c 09 bf
       -0.6201755 -0.20177767 -0.724232 -0.53729963
000280 9a 4c 0e bf 1f c6 c0 be dc fa 20 3e 90 1c 81 be
       -0.55585635 -0.37651154 0.15720695 -0.25217104
000290 1a f0 98 3d a5 01 a6 bc a7 0e 00 3e 3d 9e 5a bd
       0.07467671 -0.020264456 0.1250559 -0.053373564
0002a0 a7 ca 1a bf df a2 82 bf 9a 6d 95 bc 43 0f 9f be
       -0.6046547 -1.0205954 -0.018240739 -0.3106633
0002b0 a0 13 b0 be 9b ae c6 bd d9 3f 2e be 13 f4 16 bd
       -0.34389973 -0.09701272 -0.17016543 -0.03685386
0002c0 78 95 32 bf 96 97 ba bd 8b 04 88 bf 11 56 98 be
       -0.6975932 -0.09110944 -1.0626386 -0.29753163
0002d0 52 cb 60 bf 3f 95 49 be 7f c2 93 bf dd b1 fd bd
       -0.8781024 -0.19685839 -1.154373 -0.1238744
0002e0 ad fd c3 be 48 cf e7 be 11 f3 2a bf b2 ae 55 be
       -0.38279477 -0.4527533 -0.6677714 -0.20867422
0002f0 2c d2 c8 be 99 3c 15 bf 7b 4e 23 be c5 f1 83 be
       -0.39222848 -0.5829559 -0.15947907 -0.25770393
000300 a7 df a8 3e 01 f6 a1 be ef da ef be 73 85 0c bf
       0.32983133 -0.31633 -0.4684672 -0.5489113
000310 9b 32 52 bd d6 de a1 bd 82 14 44 be 42 e7 18 be
       -0.051317792 -0.07903831 -0.19148448 -0.14931968
000320 41 44 c5 be 73 7b 1a be 42 50 51 bc c1 c0 e5 be
       -0.38528636 -0.15086155 -0.012775483 -0.44873622
000330 6a 17 eb be d3 a9 74 bd 7f 79 89 bd b6 cd 06 3e
       -0.459163 -0.05973227 -0.06712627 0.1316441
000340 38 67 d0 bc ca 06 10 bf 0c c5 81 be fd cb c6 be
       -0.025439844 -0.5626036 -0.25345647 -0.38827506
000350 02 63 cb be 45 ff 3b be 54 24 60 bd d2 17 02 bf
       -0.39723974 -0.18359096 -0.054722145 -0.50817597
000360 98 3d 6b 3d b6 16 fb bd 87 c1 52 be 6e fb d9 be
       0.057431787 -0.12260191 -0.20581637 -0.42574638
000370 ea 5c 50 3e 7b 5b 01 bf 22 33 c9 be 56 20 b8 3e
       0.20347944 -0.50530213 -0.39296824 0.3596217
000380 52 a0 3c be 52 f4 52 3e d1 22 20 be d8 85 f8 be
       -0.18420532 0.20601013 -0.15638281 -0.48539615
000390 31 c0 df 3c d1 63 56 be ec d3 5d 3e e9 44 22 3e
       0.027313324 -0.20936514 0.21662873 0.158466
0003a0 1c 25 ed be 87 4d 14 bd 4f f1 87 be 3f 85 03 bd
       -0.46317375 -0.03620675 -0.2655129 -0.032109495
0003b0 f5 c2 84 be 54 4d 0f be f9 13 be be 9b 97 1f be
       -0.2592999 -0.13994342 -0.37124613 -0.15585177
0003c0 15 ff 03 bf f2 25 09 bf 2d 2b 88 be 2f 01 86 bd
       -0.515611 -0.53573525 -0.2659544 -0.065431945
0003d0 a1 73 0f 3e 49 6f 0d bf ea 8a c8 bc 72 a6 ee 3d
       0.14008953 -0.5524793 -0.024480302 0.11652841
0003e0 8b b7 06 3e 16 34 d9 3e 97 54 82 3b f8 28 20 3d
       0.13155954 0.4242255 0.003977369 0.03910157
0003f0 94 19 ae 3e 04 f2 71 3e a6 de 5a 3e a9 dc 08 3f
       0.3400389 0.23627478 0.21373996 0.534617

convs.1.att_src f4 [1, 1, 32]
000000 7f 30 cf 3b b3 dd 11 bd d6 31 44 bf f7 b0 2b 3d
       0.00632292 -0.03561182 -0.76638544 0.041916814
000010 d1 30 40 3e 1e 72 21 bf 42 7d 19 be cb 55 a4 3d
       0.18768622 -0.63064754 -0.14989188 0.08024176
000020 d6 6f 02 3e 75 ba 9b 3e 52 a3 9c be 3c 16 fe 3c
       0.12737975 0.30415693 -0.30593354 0.031016462
000030 e7 62 5c 3e 8b 1e 72 3d 94 30 57 be 49 00 a1 3b
       0.21522103 0.05911116 -0.21014625 0.004913364
000040 50 48 2b be 0a 50 23 bf a4 a1 1b 3f a8 7e 57 be
       -0.16726804 -0.63794005 0.6079352 -0.2104441
000050 20 bd 25 be 9f 52 95 be 0f 25 0c bf 0a 11 32 3e
       -0.16185427 -0.29164597 -0.54744047 0.17389312
000060 c2 81 9b 3e bc fe b8 3e 9c b8 17 3e 5f e1 55 3e
       0.30372435 0.36131847 0.14816517 0.20886753
000070 85 84 a4 3c 15 9a 22 3e ac 27 d0 be 86 e0 35 3e
       0.020082721 0.1587909 -0.40655267 0.1776143

convs.1.att_dst f4 [1, 1, 32]
000000 c7 1d 29 3f 95 0a 08 be d1 4b 3d 3e 3d 99 04 3e
       0.6606106 -0.13285287 0.18485953 0.12949081
000010 92 ca 12 bf 48 af 23 be 1a c3 df be ba 36 45 be
       -0.5734035 -0.15984833 -0.43703538 -0.19259158
000020 ef 60 e0 bd a7 f2 fc be ad ab b4 3e 50 19 85 bc
       -0.109559886 -0.4940388 0.35287228 -0.016247422
000030 3f 76 cf be 27 8c 1d bf 0e 2f 63 3f dd 54 9e 3d
       -0.40519902 -0.6154198 0.88743675 0.0773103
000040 68 2c 97 3e e8 79 42 3f e0 e7 27 bf f6 c7 d7 be
       0.29526067 0.75967264 -0.6558819 -0.42144746
000050 00 49 19 3e 15 35 88 bd f7 b1 88 3f 56 7d 90 3e
       0.14969254 -0.066507496 1.067931 0.28220624
000060 40 14 16 3e e0 8e 45 be 3c 17 5d 3e 61 1d 2a 3f
       0.14656162 -0.19292784 0.21590894 0.6645108
000070 0f 76 bc 3e ed c9 8a bd 20 3d 83 3f e7 74 1d 3f
       0.36808822 -0.067767955 1.0253029 0.61506504

convs.1.bias f4 [32]
000000 ca c7 19 be 5a 07 12 3e 51 8f 07 be 6e 1f 09 be
       -0.1501762 0.14260617 -0.13238265 -0.13390896
000010 82 ad 12 3e c0 a6 0d be 4d 50 15 be 59 de 0f 3e
       0.14324 -0.13833141 -0.14581414 0.14049663
000020 37 bb 12 3e 73 17 0a 3e 3c 2e 12 3e e8 0a 04 be
       0.1432923 0.13485508 0.1427545 -0.12894785
000030 28 a4 11 3e 41 5e 58 ba 6a b2 08 be 28 ff 17 be
       0.14222777 -0.0008253791 -0.1334931 -0.14843428
000040 01 40 04 be 82 67 ef bd c8 f5 11 3e cb ba b3 bd
       -0.1291504 -0.116896644 0.14253914 -0.08775862
000050 66 e2 04 3e 8e ff 15 3e f3 76 81 3c 6c 92 0d be
       0.12976989 0.14648268 0.01580379 -0.13825387
000060 f5 b0 0e 3e 26 e3 16 3e 08 5a 0b 3e 3e 90 97 3d
       0.13934691 0.14735088 0.13608563 0.07400559
000070 62 19 10 be 3b 39 09 be da 0b cd 3d 81 32 15 3e
       -0.14072183 -0.13400738 0.10012026 0.14570047

convs.1.lin.weight f4 [32, 32]
000000 cc 8f a7 3e c1 cd 0d bc 76 5e d3 3d 98 93 cd bd
       0.32726896 -0.008655013 0.10320751 -0.10037917
000010 e8 5d c5 3d e7 9e 87 be c4 8a 9d 3e 3e 75 f1 3d
       0.09637052 -0.2648842 0.30769932 0.1178994
000020 ec 91 bb be c1 93 d3 be 4d ac c9 3d 18 58 89 3d
       -0.36634767 -0.41323665 0.09847317 0.06706256
000030 8b bf 85 3e db 6f 17 be 61 38 d3 3e da 8e 4b be
       0.26122698 -0.14788763 0.4125395 -0.19878712
000040 29 10 6f be d5 b6 bb be 99 2c b2 be 7d 4b f2 3d
       -0.23346008 -0.36662927 -0.3479965 0.118308045
000050 9e a7 81 be 08 9b 64 be b8 25 b1 3e 52 11 71 3c
       -0.25323194 -0.22324765 0.3459909 0.014713602
000060 b0 26 af 3d aa 39 20 bd 29 7d 1e 3e b2 69 9d 3e
       0.08552301 -0.039117493 0.15477432 0.30744702
000070 70 78 9d 3d 6c 15 07 3e ba 09 78 be ab 51 aa be
       0.07688987 0.13191766 -0.2422246 -0.33265433
000080 d7 76 f0 be 89 23 c9 3d 50 cd d7 3d b5 a4 9c 3e
       -0.46965668 0.09821231 0.10537207 0.30594411
000090 6d b6 a7 be 07 1a 57 be 21 68 f0 bd 15 83 49 3d
       -0.32756367 -0.21006022 -0.11738611 0.049197275
0000a0 b4 a4 41 be 6a 54 d3 3c 96 0b fc 3c 63 e1 b3 3d
       -0.18910486 0.025797088 0.030767243 0.087832235
0000b0 ff d4 72 3e 60 5f d1 bd 9e cd a1 3d 4e 66 81 be
       0.23714064 -0.102232695 0.079005465 -0.25273365
0000c0 f1 7d 16 3d ef f7 c4 bd f3 ee 7e 3e 99 8b bf 3e
       0.0367412 -0.09617602 0.2489584 0.37411192
0000d0 69 8e a8 bd 06 cb ce 3e a3 51 d4 be 47 c6 0b 3c
       -0.082302876 0.4038927 -0.41468534 0.00853116
0000e0 e7 bd a0 3e ac 5a b2 be 77 73 43 3c c7 62 44 be
       0.31394884 -0.34834802 0.011929384 -0.19178306
0000f0 04 60 7b 3e 3a 2c c0 be d4 35 93 3e 6d 40 52 be
       0.24548346 -0.37533742 0.28752005 -0.20532389
000100 ea 70 53 3e ce b7 08 bd b0 5a b6 be 29 d0 17 3d
       0.20648542 -0.033378415 -0.35616064 0.03706375
000110 42 15 85 bb 5f cc c3 3e 61 7b 71 bd 21 57 c3 3d
       -0.004061372 0.3824186 -0.058955554 0.09538103
000120 17 b0 e8 3c c6 6b ab be d1 72 6d 3d 25 fe 7a 3e
       0.028404279 -0.33480662 0.057970826 0.24511011
000130 5e 25 81 bc 5b 66 c7 be 36 9d ef 3c ec 8b bc 3e
       -0.015764888 -0.3894528 0.029249769 0.36825502
000140 09 ae ec ba 85 8f ab bd c2 0c 95 bd 7a f6 4c bd
       -0.0018057238 -0.083769836 -0.07277824 -0.050039746
000150 60 21 8b bd 15 cb d7 be 5e f1 5f 3e 15 64 51 be
       -0.06793475 -0.42147127 0.21869418 -0.20448335
000160 a5 2c 42 bd 7b 62 e5 3e cd 2d 17 be 77 03 98 bc
       -0.047405858 0.44801697 -0.14763565 -0.01855634
000170 df d4 b0 3d 56 a3 50 3e 57 0b 24 3d 85 62 2f be
       0.08634352 0.20374808 0.040049877 -0.17127426
000180 31 93 e9 bd f8 b3 ef 3d bb b3 0a be 8b b3 b3 be
       -0.11405028 0.11704248 -0.13545124 -0.35097918
000190 ed b2 26 bd 4b 8b da bd c9 5d db 3d e7 0d cc 3e
       -0.04069798 -0.10671099 0.107112475 0.39854357
0001a0 a7 7d 63 3e bb 81 e7 bd ec de 17 be d0 66 13 be
       0.22215901 -0.11304041 -0.14831132 -0.14394689
0001b0 b8 9b cc 3d 52 b0 28 3d 94 a6 b1 3d d6 77 8a 3e
       0.099906385 0.041183777 0.086743504 0.27044553
0001c0 b0 dc bf 3d 21 5c 0b bd 3c 6b d1 be 7e fd e4 bc
       0.09368265 -0.034023408 -0.40902126 -0.027952906
0001d0 c6 fc 1b 3e c6 0e c0 3c ea 37 b9 3e 95 20 19 be
       0.15233144 0.023444545 0.36175472 -0.14953835
0001e0 00 55 9e be 95 60 93 3e 35 6b e5 3d 31 e5 7a 3b
       -0.30924225 0.28784624 0.11202089 0.0038283581
0001f0 d4 07 81 3c 8c 09 03 be 22 fa d6 bc 3b 1a 2e 3e
       0.015750803 -0.1279661 -0.02624232 0.17002194
000200 fc 63 6b be 0c 4d 69 3d fa 7f 09 3e c7 40 cf 3e
       -0.2298736 0.056958243 0.13427725 0.4047911
000210 cc 2c ac be 13 a3 75 be 1e 8e 9f 3d 8e 68 1d 3d
       -0.33627927 -0.23987989 0.077907786 0.03842979
000220 9b 41 e3 3c c6 e1 29 3d 4f ea 9a 3e 29 36 53 be
       0.027741244 0.04147508 0.30256888 -0.20626129
000230 15 ec 14 be 28 36 ed 3e 6b dc 22 be ee 71 82 be
       -0.14543183 0.4633038 -0.15904395 -0.25477546
000240 5b 02 56 3d 47 79 97 3e 92 15 e1 3e 98 b1 2a 3e
       0.05224834 0.29584715 0.4396177 0.16669309
000250 e1 d2 46 3e ef 0f e2 3e a8 44 9c be cb ec ac 3d
       0.19416381 0.4415278 -0.3052113 0.08443602
000260 32 74 80 3e 7c 37 4f be c5 56 52 3e 90 9a b8 bb
       0.2508865 -0.2023601 0.20540912 -0.0056336597
000270 3d e5 b5 3e 37 09 99 be b9 9c da 3e 2d c5 3b 3e
       0.35526457 -0.29889843 0.42697695 0.18336935
000280 41 f6 84 3e 9d c9 58 3e df 6f b5 be 89 2f 69 3c
       0.25969127 0.2117066 -0.35436913 0.014232525
000290 7c f4 73 3d 76 31 9f 3e 28 4c e8 3d 9c 59 0c 3e
       0.05955933 0.31092423 0.11342651 0.13706058
0002a0 54 30 96 3e 28 61 98 be 04 1b cf 3d b7 fc 94 bd
       0.29333746 -0.29761624 0.10112575 -0.07274764
0002b0 2c ee be 3c cf f3 41 be bb dd a0 bc 52 11 0d 3e
       0.023306929 -0.18940662 -0.01963698 0.13776138
0002c0 b9 b7 aa be f6 bd 08 bf 16 55 d5 bc 2e 5c 5f 3c
       -0.33343294 -0.5341486 -0.026041549 0.013632817
0002d0 d0 a6 20 3e f4 ce 1b 3e f6 47 4d 3e d2 54 2a be
       0.15688634 0.15215665 0.20046982 -0.16633919
0002e0 50 83 ba bd 22 7f e6 3e 36 3d 0d be 7c 5d 3d 3a
       -0.09107077 0.4501887 -0.13792881 0.0007223708
0002f0 63 c3 c2 be 76 e0 3b 3d ab 02 ae be 12 1f 91 be
       -0.38039693 0.04586836 -0.3398641 -0.28344017
000300 ad ea 1c bd df 82 fb 3d 95 b8 aa bc 1a a7 a3 3e
       -0.03830974 0.12280821 -0.020839969 0.31963426
000310 f0 a7 7d 3e 7d 4e ab 3e 26 68 02 3e 8e 87 a8 3c
       0.24771094 0.3345832 0.12735042 0.02057245
000320 c5 9c d8 bc 07 4a 40 be fd be 50 be 64 2c 92 3e
       -0.026441941 -0.18778239 -0.20385356 0.28549492
000330 3c f4 00 3f 6c d7 49 3e b8 32 1b be b1 80 c5 3e
       0.5037267 0.19711083 -0.15156066 0.38574746
000340 31 e6 6a 3b ee 23 b8 be 8c b0 cb bb ee 33 9e be
       0.0035842771 -0.35964912 -0.0062161144 -0.30898994
000350 7d bb 11 be 53 98 86 3d a8 0a b5 3d 53 5b 91 be
       -0.14231677 0.06572022 0.08839923 -0.28389987
000360 9c eb 1b bc 3a da da 3e 5a 90 63 be 3e 26 9e 3e
       -0.009516623 0.4274462 -0.22223035 0.3088855
000370 01 6c 1c 3e de f1 3f be 25 46 df bd 7e c7 cf 3d
       0.15275575 -0.18744609 -0.10902051 0.10145472
000380 e2 d2 e4 be 87 f3 a1 bd 20 7a b3 3d 8b 76 26 3e
       -0.4469214 -0.07907777 0.08763528 0.16256158
000390 18 56 57 be b0 75 0e 3d 1a 33 e2 3d 0f 65 90 be
       -0.21028936 0.034780204 0.11044903 -0.28202102
0003a0 8a 02 23 be 7e 5e fb bd 31 14 cb 3e 4e 97 22 3d
       -0.15918937 -0.12273882 0.39663842 0.039695077
0003b0 1e db a1 3e 8e 91 44 3e cf ea c0 be ca 19 07 be
       0.31612486 0.1919615 -0.37679145 -0.13193431
0003c0 2c 3b 30 3d eb 6d 40 3e 64 a4 d6 3e 71 17 5f 3e
       0.04302518 0.1879193 0.41922295 0.21786286
0003d0 58 2f 9a 3e 49 78 96 3e 3a dd bf be 9b 5f 41 bd
       0.30114245 0.29388645 -0.3747347 -0.047210317
0003e0 6e 32 f8 3d 31 84 31 3d 60 73 50 3e 68 77 14 bd
       0.12118994 0.04333896 0.20356512 -0.036246687
0003f0 81 40 c1 3e 04 1a 81 be 13 de 8a bd 7d e8 11 3e
       0.37744525 -0.2521516 -0.067806385 0.14248843

lin.weight f4 [1, 32]
000000 b2 80 56 be b1 81 32 3e a6 38 54 be 45 1e 27 be
       -0.20947531 0.17432286 -0.20724735 -0.1632014
000010 0f 7d 87 3e 42 48 9b be 24 41 22 be f0 17 6e 3e
       0.264626 -0.30328566 -0.15845162 0.23251319
000020 5b 36 99 3e 40 79 e6 3d 04 3a 87 3e 42 59 6a be
       0.29924282 0.11253595 0.2641145 -0.22885612
000030 01 41 8a 3e 75 3c 39 3e 2d 85 0d be d8 75 5a be
       0.2700272 0.18089469 -0.13820334 -0.21334016
000040 92 10 3c be 0f c8 23 bd 8a de 9c 3e ad 8c 16 be
       -0.18365696 -0.039985713 0.30638534 -0.14702101
000050 3a 03 d6 3d d1 14 4c 3e d9 1d 22 3d 55 83 9a be
       0.10449834 0.19929816 0.039579246 -0.30178323
000060 5b 91 61 3e be fd 52 3e 37 31 65 3e f9 55 e1 3d
       0.22028105 0.20604607 0.22382055 0.11002726
000070 56 5b 45 be 9a fe 86 be 86 5b a9 bb db 47 23 3e
       -0.19273123 -0.2636612 -0.005168381 0.1594538
